models/dqn_lunarlander.pth (torch, 543485 bytes, 8 tensors)

network.0.weight f4 [256, 8]
00000000: 9e12 27be a0bf b5bf 4e90 203d ce6b eebd
00000010: 7b78 a7bb dee6 583f e5a6 1b3f 7590 e83e
00000020: c915 97be a8a5 393e 280c 1dbf 4841 f7bb
00000030: 620d 0a3e 524e 7ebf ffbb 0cbf c9bb 48be
00000040: 6f90 633d bdc9 8ebd a170 3e3f 4765 cbbd
00000050: 277c 3bbe 9a57 223f 2088 f8bc f8dd 13bf
00000060: b6f6 563e 2bf7 47be 5fe4 e0be e608 1b3f
00000070: 2bd7 04bf 5691 dabe 3cf9 213f 1466 023f
00000080: 024e 4d3f 9a73 87be 1321 913e 0a6c 7abe
00000090: e154 5a3e 3a0a 003f 741b 95bd 44b5 8b3e
000000a0: db84 053d 00af 91be b044 e3be 9794 27bf
000000b0: d372 58bf bc04 243c 56b3 bebe c6ad ff3e
000000c0: 238e 35bf c7be cbbe fcef 2ebf c473 38be
000000d0: 55a5 2fbd 409d 58bf 93bb 903e 0edb 9cbd
000000e0: 8cbf ca3e 8a0f 833d ac97 6dbd 4a2e 1abf
000000f0: 0dcc 0dbf 9993 f5be 5052 0abf 5292 66bd
00000100: 8edf 07bf 153b 473e b83f af3e bab1 0dbe
00000110: 976d 5e3e 28b7 943f ed22 df3e 9274 273e
00000120: d7a3 443f e651 963d 54f3 3cbe 8351 91be
00000130: e16f 08bf 98b7 b6be 5cb2 1cbf 82c7 30be
00000140: 457a 1c3c 523e 8b3e 763b 203f a96c f7bd
00000150: 7b76 6bbe 0c26 8e3f 4c24 083f 235a 90be
00000160: 5dd8 2abf b284 b7bf 9c61 b33e 97fb d4be
00000170: 6236 1abe 9aa0 34bf 8a87 8dbe 2fa2 0a3f
00000180: 3fd6 cdbe 1343 2cbf 16c5 6cbe 65be c2be
00000190: 10b5 e2be 77d3 d7bd 5b81 d13e f148 c03e
000001a0: 35fa 91be 437a 39bf 7824 263f aeff 34bf
000001b0: 5a37 93be 9de8 2c3f 4e78 9e3e d6b4 a73e
000001c0: 1e16 82bf ea0c 73bf 8f43 a83e ec86 36bf
000001d0: 3469 4dbf 8965 6cbd 0811 c63e c92d dabd
000001e0: 492d 543f c887 1e3d f069 2f3f 6d93 2d3e
000001f0: 2f5c 04bf 7c86 ee3e 022e d1bd 1074 f03e
00000200: fc9e 6ebf 7b04 f7be d287 06be 82ee febc
00000210: 1af0 4ebe 0aee ff3e 5493 5b3e 69c5 15be
00000220: d1b7 503e 87fb 9bbf bea7 66be a189 bbbc
00000230: a322 80bf 5b42 0ebf 10d1 103f 9652 103f
00000240: f7ba cd3e ae99 ffbe c1b4 243e bbd6 2abe
00000250: 083a 913e e637 443f 74f1 113e 2c6d 373e
00000260: e03b 52bf 873b 1cbe c665 fbbe 59a0 4bbd
00000270: 1f20 20be a292 4dbf 60d1 6c3e 24c6 01bf
00000280: c3e2 0a3e 6410 ecbc 3757 69bf 3d63 2a3d
00000290: 7830 ad3f d7f8 af3e 4833 243e 5c5c f33e
000002a0: 39d0 2dbf 5e6f b33e 9234 11be 453c 733f
000002b0: 6191 3cbf 3d61 a1bf bf2d 69bf 7e08 a2be
000002c0: 6bdc 113f 2ad4 a53e 8ff5 153f d3ec c7be
000002d0: 5ff6 e7be 37a6 2cbf 91b3 ddbd 19f0 5a3e
000002e0: f2b7 2b3f ac2e abbd b47e 883e c4bb babd
000002f0: 53fc 9ebe 213e e6be b26f 00bf 8075 583e
00000300: 5b19 283e 327e 29bd 3ff2 6cbe 9974 713e
00000310: caee 123f 9de0 383f 73db fabe 6c22 d33e
00000320: b6df a33d 33c4 823e 472b 173f 967b e13d
00000330: 1424 27bf 0004 8dbe e402 083f 9429 f33d
00000340: 8968 ee3e 0bb7 a43e 6bb4 953d b0b4 d5bd
00000350: 438c 50bf 5328 36bf dc0c 57bd 74b0 04bf
00000360: 8743 09bf a79f 843e 06d0 4f3f 8284 c53d
00000370: 6c79 06bd 38f9 293e 7d4d 11be 4ed2 143f
00000380: 42ed 0f3f a396 9fbf 835d 10bf b52c abbd
00000390: 6355 853f e23b bf3d 011e 133f 12fc 073f
000003a0: 4bef 4b3e 4419 6b3e 798e 90be c144 9fbe
000003b0: 5428 46bf d3dd e0bd 3f79 a33e 02b9 d0be
000003c0: c01f 10bf 6c42 afbc c55e 52bf 6862 6abf
000003d0: c124 10bf bcce b33d 394f 7d3e 6ded 74bc
000003e0: 461a c43e 1aeb c33e 922e 99be 96aa 52be
000003f0: ce97 8d3d 13d6 03bf c6b7 533d 4e6f 183d
-0.16315696 -1.4199104 0.03920012 -0.11641656 -0.005110798 0.84727275 0.60801536 0.45422712
-0.29508808 0.18129599 -0.61346674 -0.007545624 0.13481668 -0.9933826 -0.5497436 -0.19602884
0.055557664 -0.06972072 0.7439061 -0.099314265 -0.18309079 0.6341492 -0.030338347 -0.5776057
0.2099255 -0.19527881 -0.43924233 0.6056045 -0.5189082 -0.42689008 0.63270926 0.5093701
0.80197155 -0.26455384 0.28345546 -0.24455276 0.21321441 0.50015604 -0.07280627 0.27286732
0.032597404 -0.28453827 -0.44388342 -0.65461105 -0.8455021 0.010010894 -0.37246197 0.49937266
-0.7092001 -0.3979399 -0.6833494 -0.18012911 -0.042882282 -0.84614944 0.28268108 -0.07658969
0.39599264 0.06399448 -0.058005974 -0.6022688 -0.5538948 -0.4796417 -0.5403185 -0.056291886
-0.5307549 0.19456132 0.342283 -0.13837329 0.21721493 1.1618395 0.43581334 0.16353062
0.768125 0.0733984 -0.18452197 -0.283825 -0.53295714 -0.35686946 -0.61209655 -0.17263606
0.009550636 0.27195984 0.6259073 -0.12081272 -0.22994415 1.1105361 0.53180385 -0.2819377
-0.66736394 -1.433737 0.35035408 -0.41598198 -0.15059808 -0.7055756 -0.2764247 0.5415372
-0.4020252 -0.6728985 -0.23122057 -0.38035884 -0.44278765 -0.105383806 0.40919003 0.3755565
-0.28511205 -0.7245218 0.64899397 -0.70702636 -0.28753167 0.6754244 0.3095116 0.32755154
-1.0163 -0.9494158 0.32864043 -0.71299624 -0.8023865 -0.05771402 0.3868487 -0.10653264
0.828816 0.03870371 0.6852102 0.1695077 -0.5170316 0.46586978 -0.102138534 0.4696355
-0.9321134 -0.48245606 -0.13137749 -0.031119589 -0.20208779 0.49986297 0.2144292 -0.14626087
0.2038262 -1.2186135 -0.22524926 -0.022892775 -1.001057 -0.5557 0.56569004 0.56376016
0.40181705 -0.49921936 0.16084577 -0.16683476 0.28364587 0.76647794 0.14252263 0.1791274
-0.8212261 -0.15257083 -0.49101084 -0.049713466 -0.15637253 -0.8030187 0.23126745 -0.50692964
0.13563065 -0.02881641 -0.91148704 0.041598547 1.3530416 0.34369537 0.16035187 0.47531402
-0.6789585 0.35045904 -0.1418021 0.9501384 -0.7365933 -1.26078 -0.9108543 -0.31647104
0.56976956 0.3238843 0.5857782 -0.3904787 -0.45305154 -0.67441124 -0.10825265 0.21380652
0.67077553 -0.08358511 0.26659167 -0.09117845 -0.31051883 -0.44969276 -0.50170434 0.21138573
0.16415922 -0.041380115 -0.23139285 0.23579635 0.57395613 0.7221773 -0.4899555 0.412372
0.08001654 0.25540313 0.5905041 0.110099 -0.65289426 -0.27542114 0.5312941 0.11873165
0.4656413 0.321709 0.073098026 -0.10434854 -0.8146402 -0.7115528 -0.052502498 -0.51831746
-0.53618664 0.25903055 0.81176794 0.096444145 -0.03283064 0.16598976 -0.14189716 0.581334
0.562214 -1.2467846 -0.5639269 -0.083581366 1.0416683 0.093375936 0.5746766 0.53119004
0.19915502 0.22958857 -0.28233698 -0.31107143 -0.77405286 -0.109798096 0.3192844 -0.4076615
-0.56298447 -0.021393977 -0.82175857 -0.91556406 -0.5630608 0.08779666 0.24737252 -0.014949185
0.38301295 0.38265306 -0.29918343 -0.20572886 0.0691372 -0.51498526 0.051688932 0.037215523

network.0.bias f4 [256]
00000000: 8f84 873d 8ac7 2abe 4357 863e 5fe9 bb3d
00000010: 6d0b aebe 72a7 eb3d 18b5 b13d c5de c23e
00000020: d668 40be f5bb de3e a047 433e cb07 61be
00000030: 8b2b 153f b133 99be cbae debd b939 4bbe
00000040: 1af1 cd3e 29ef 5cbe c2ba 283e 4203 07bd
00000050: 175a 45be b026 a03e ad10 50be a22f 4ebe
00000060: cda6 d93e b30b c53e 8493 a9be 1c95 fe3e
00000070: 0f8d 68bd 1c22 e43e a5e4 ee3e 6934 273f
00000080: f26b 043e d5b9 58be 78cd 233f e210 a7be
00000090: a2a7 d1be 332f 563e e82e 613e 889a b8be
000000a0: 7d8a 7d3d c763 90bd ccbf 36be 41b9 80be
000000b0: d62d 413c f542 683d 5765 2dbd 4ad1 b93e
000000c0: 2267 7b3e f5bc 743e d037 7e3e abeb 053f
000000d0: db9e 5dbd 9793 5fbe cc43 db3c ce84 203f
000000e0: 1377 1fba 032e 0bbe ee0e 88bc 6ccb d13e
000000f0: 2059 0a3f 9e99 0a3f 32ed 8a3e 3650 943e
00000100: 3aee 46be c045 3f3d d6ce c53e 786f c13d
00000110: 3f59 63be b405 003f c981 a4bd ec25 fd3e
00000120: 1e98 063e 46b3 6abe 8b69 8dbd c125 473e
00000130: 7a78 3d3d 6e04 273f 1616 3a3e 08a7 d43e
00000140: 7141 b2be acce 413e 9fab 553d b803 d23e
00000150: 1fb8 283d e3e0 e3bd 17d3 b13d 9278 2e3f
00000160: bdb1 8b3e 03a8 eebd 80c3 793e d022 0a3f
00000170: bffd 983e 4bbb 8c3e d1c9 6cbe 8d0a be3e
00000180: e7a0 3abe 1c01 123e 3f7e 203f 416a ecbd
00000190: ae3d e53e 1a66 a63e 49a3 f23e 14ab 583c
000001a0: 4eef 24be 68c2 103f e95d 013f 7e91 6ebd
000001b0: 84b5 5fbd f0be b23e 468b c0be ce5e b83e
000001c0: 07aa 6c3d c344 3f3e 8d16 993e e469 623e
000001d0: 1ebe 87be 0b3b c83c a637 be3d d268 fe3d
000001e0: a75a 403e 65d7 3abe ce21 603e 8bb2 693e
000001f0: 0d1f cc3e 7efa d6bd dfae b6bd b298 50be
00000200: 3706 963e 7462 8f3e 9852 9c3e 8006 f63d
00000210: 235e 33bd 5d3b 343f 278b d63e b60a b93d
00000220: dd63 943e af30 6dbc 1e5b 41be 4009 203e
00000230: 267b 293f 7faa 1d3f e448 043f 2907 92bd
00000240: 387b 91be 4eed 42bc 9db9 d1be 4a87 9b3e
00000250: 176d 163c bf41 013d 9841 223e 805b 843e
00000260: ab9a 1d3f 28ee 3c3f ee00 233f 908f cb3e
00000270: 1637 343f 7295 afbb e200 70bd f41b be3d
00000280: 6da3 0c3c bd3a d23e d5be a73d 5e2f f43e
00000290: 99b4 323f 82bc 0b3f baa0 3ebe d3bb 953e
000002a0: e968 98be d597 0d3f 9c25 e83e 96ae 003e
000002b0: 6da8 a53e d88e 8fbd 2c21 0f3f f51f 8bbd
000002c0: 33d4 a8be 1f07 203f 0a5e 0fbe 9719 193f
000002d0: 4b94 163f d629 28be 2051 0fbe e0ec 94be
000002e0: c998 063e 4435 f13e 81dc 05bf 3c84 e73e
000002f0: 64c4 ae3e e75d 35be 0a7c eebd 84f5 273e
00000300: 8e8b 3f3f 6b52 04be ca1e 5dbe 932b b03e
00000310: 3008 e73d fa39 15be 0de1 de3d 9159 633e
00000320: 36ab 1d3f 6d53 633d c6a6 66be eeea 123f
00000330: f8fe 253c 5448 6abe 3a80 1d3f 2350 97bd
00000340: b2cf 57be 1f05 afbc 0c9b a73e 7de9 a03e
00000350: 2fa6 013f fd97 99be e7f3 cf3c b936 403d
00000360: b499 423e 29b3 e63d df45 c8be ed9a f73e
00000370: 4575 4d3e 671c 1d3d 8a64 7bbe 5a77 f3bd
00000380: c95b 2a3f f644 333e b85b bcbd b63d 2e3e
00000390: 1d1b 46be 59c4 8e3d 7a8e ab3e 8b70 dcbe
000003a0: 2a30 b63e 65d1 1b3f 5836 3e3c cb89 3f3e
000003b0: 1ce9 203f fe97 693e d879 1c3f 9be9 3abe
000003c0: ba4c a53e 6979 ca3e 0935 a2be 7dde fe3e
000003d0: f621 bb3e 64f2 183b 1183 be3e 0018 853e
000003e0: 6e75 20be baa6 f8bd ad21 b53e b707 b73d
000003f0: ef8c d53d 1ca3 323d 0431 4fba efcf 213f
0.066170804 -0.1667768 0.2623845 0.091753714 -0.33993092 0.11506547 0.08677119 0.38060585
-0.18789992 0.43502775 0.19070292 -0.21975629 0.58269566 -0.2992225 -0.10873183 -0.19846238
0.40223008 -0.21575607 0.16477492 -0.03296209 -0.19272648 0.31279516 -0.20318861 -0.20135358
0.4251007 0.38485488 -0.33120358 0.49723136 -0.05677515 0.44557273 0.46658817 0.65314347
0.12931803 -0.2116464 0.63985395 -0.32630068 -0.40948206 0.20916443 0.2199055 -0.36055398
0.06189965 -0.07050281 -0.17846602 -0.25141338 0.011790713 0.05670448 -0.042332973 0.36292487
0.24551061 0.23900206 0.24825978 0.52312726 -0.054106575 -0.21833645 0.026765727 0.62702644
-0.0006083112 -0.13591771 -0.016608682 0.4097551 0.54042244 0.5414065 0.2713409 0.28967446
-0.19426814 0.04669738 0.38634366 0.09445089 -0.22202013 0.500087 -0.08032567 0.49442995
0.13143966 -0.2291995 -0.06904896 0.19447996 0.046257474 0.65241134 0.18172488 0.41533685
-0.34815553 0.18926495 0.052165624 0.41018462 0.041191217 -0.11126878 0.0868284 0.68152726
0.2728404 -0.116531394 0.24390984 0.5395937 0.29881093 0.27486643 -0.23123862 0.37117425
-0.18225442 0.14258236 0.62692636 -0.11543704 0.4477362 0.32499772 0.47390202 0.013224382
-0.16106912 0.5654664 0.5053392 -0.05824422 -0.054616466 0.349113 -0.37606257 0.3600983
0.05777934 0.18678574 0.29900017 0.22110707 -0.26512235 0.024442216 0.09287958 0.12422337
0.18784581 -0.18246229 0.21887895 0.22822015 0.3986744 -0.10496996 -0.08920073 -0.20370749
0.29301617 0.280048 0.30531764 0.120129585 -0.043790948 0.7040308 0.4190304 0.09035246
0.2898244 -0.014476939 -0.18882415 0.15628529 0.66203535 0.6158828 0.5167372 -0.07130272
-0.2841432 -0.011897398 -0.40961924 0.30376655 0.0091812825 0.03155684 0.15845335 0.2585106
0.6156413 0.738009 0.63673294 0.39757967 0.70396554 -0.0053583914 -0.058594592 0.092826754
0.008583886 0.4106044 0.08190695 0.47692388 0.6980682 0.54584515 -0.18616 0.2924486
-0.2976754 0.553098 0.45341194 0.12566599 0.3235506 -0.07009667 0.5590999 -0.06793205
-0.32974395 0.62510866 -0.14000717 0.5980467 0.5882003 -0.16422209 -0.1399579 -0.2908697
0.1314422 0.4711095 -0.5228959 0.45218074 0.3413421 -0.17711602 -0.11644752 0.1640225
0.7482232 -0.12922065 -0.21593776 0.34408244 0.112808585 -0.14572898 0.10882769 0.22202136
0.6158937 0.055499483 -0.22524557 0.57389724 0.01013159 -0.22879153 0.61523783 -0.07388332
-0.21075323 -0.021364747 0.3273548 0.31428137 0.506442 -0.2999877 0.025384856 0.046927188
0.19003946 0.11264641 -0.39115807 0.48360386 0.20064266 0.038357165 -0.24550071 -0.11887999
0.66546303 0.17506775 -0.091971815 0.17015728 -0.1934628 0.06971044 0.33507138 -0.43054613
0.3558362 0.60866386 0.011609636 0.18704908 0.62855697 0.22811887 0.6112342 -0.18253176
0.322851 0.39545754 -0.31681088 0.4977912 0.36549348 0.0023337835 0.3720937 0.25994873
-0.15669796 -0.121411756 0.35377255 0.08937018 0.104272716 0.043612584 -0.0007903727 0.63207906

network.2.weight f4 [256, 256]
00000000: be05 153e 1687 dbbe 343d 8f3d f1e2 53be
00000010: ecc1 05bd fe02 82bd 34b4 80be b0b8 85be
00000020: d739 c53e bebc 57be c151 9e3e e616 94bd
00000030: c9cf 82bd edfe 11bd 13ff 1a3e 49e5 3ebc
00000040: 7bee 103e 83d0 77be d8e4 a73d a9e5 a2be
00000050: d98c e33e bfd1 1b3e ee1d 7dbe c5ff ffbd
00000060: ce51 ad3e 9f43 e43c 720c 7bbe d2b8 07bc
00000070: 54ac 6c3e 54b0 2d3d c812 173c cd1d 23be
00000080: cced e8be 25dd edbd 42e1 6b3d 8387 99bd
00000090: 1246 ab3e a166 d6bc 9780 2e3d 580c f43d
000000a0: 1d71 a03e d341 473e 1be1 ab3d 98b3 8f3c
000000b0: 2847 623e dc93 cbbd 2681 c6be c56a 60bb
000000c0: 955b c1bd c3b2 d2bb 1b41 473e 2a97 74bd
000000d0: f35b 07be fd2f 6d3e 5f4b 2dbd d8b4 043e
000000e0: 1b0c 823e 3aea 2d3e da94 1ebe 595f b73d
000000f0: 02dd b6bb bb05 6c3e 22e2 dd3e 2519 66be
00000100: 5db6 803e b294 303d 399f fdbc 0b6b 2f3e
00000110: 1e17 d5bd 6d5c 8dbe e660 eabd 4204 01be
00000120: 5135 463e fac0 8d3e 6ad1 023e 1fde cb3d
00000130: 96d3 da3e 497f 183d 9761 113e d705 09be
00000140: e29f d7bd b600 0bbd d329 18bd 8c38 d63b
00000150: 6ec5 153e d7f4 893e 781b ddbd bf31 d4bc
00000160: 8ebd e6bd 6764 d73e c5b3 a2bd 0e6a 33bc
00000170: 02b4 30be 8ace 983d bb64 963d 4569 aa3d
00000180: 1eb6 8fbe 61b6 023e 29e2 29be 76bf 89be
00000190: 9942 b13d 1e11 9ebb 355f 66bd 5732 26be
000001a0: 2146 b73e 2442 4ebc 51b3 68bb bd3c 1cbd
000001b0: a0ad 6a3e ee4a acbd bd04 d3be d4d9 cc3c
000001c0: 6f18 80bd 2375 fd3c 9aa9 5e3e abcd 863e
000001d0: 220e 343e fe09 0d3e 3035 18bd 6ae7 d93e
000001e0: 3928 07be 9abd ad3d 0cee 963e c351 893e
000001f0: bd1f 953e b5e4 b4be f614 0d3d ce2c febd
00000200: 92ba 2c3e c80d c43e fd5d 51bd 4ba6 27bd
00000210: ffc2 923e 45bd 1cbe 2ed8 2e3e 8ec1 84be
00000220: bd50 7a3d da2f 623e 5dbe 063e cdf2 76bd
00000230: 3f0e 313e cad7 b43d f0a2 c8bc 0ebd 9ebe
00000240: cc39 3b3e 9b0b 94bd bed0 4dbd ebe0 173e
00000250: 1cba 833b 2cea 9e3e 7a77 283e 48a5 48be
00000260: f199 303e 799d f03d 6bf2 c3bd aec5 193e
00000270: ce19 e53d 046d 843d b528 96be 0c26 71be
00000280: d35e d5be dcb9 5b3e 373a 953b 6551 f4bc
00000290: ffaf 573e e7af b3be 1576 a73e 73a9 463e
000002a0: 3363 58be ed58 133e e271 b63d 21c3 8d3e
000002b0: 9d99 0ebc 440c 8ebe 8e0d 0cbe 5552 58bd
000002c0: b947 56be 95fd f63e 6364 5cbd 871b 51bd
000002d0: bc6c 503d 41f8 11be adcd 8e3e be0e 94bd
000002e0: be58 7d3e 6156 603c 7049 a7be 1d05 2f3d
000002f0: 50b0 503e d071 a63e 6bbc 8a3d 0a41 08be
00000300: 279e 173e 95a0 cd3d 129d 8dbe ae79 54bd
00000310: 00a9 273e fb65 8b3e 9174 bdbc a96c b83d
00000320: 81c8 e03d a365 afbe b2f0 633e 4122 94bd
00000330: a175 3ebc fb97 00be cdcb 213e 416b 2abe
00000340: 870a 72be ddcc 793e 046c f9bc a535 873e
00000350: 6318 12be 1657 0c3e de0a c23d 09e4 4dbe
00000360: 7272 9a3e 36e8 443e 2bfb c73d c447 80be
00000370: 9a78 833e d733 aebc 044d 1c3e 1c22 dabd
00000380: 833a 173e ca1b d53e c2e0 03bf 9d8b ba3d
00000390: 316e ccbe a22d 8bbe 3b3f ed3d 26f7 5f3e
000003a0: 0f51 ef3c 1275 263e e254 ddbe fe12 77be
000003b0: 7388 3e3d 99d0 2bbb fed4 023b e58e ac3c
000003c0: 31de bb3d 812b 2f3e a5da c93e 7c48 80be
000003d0: 7147 1fbd fa6f 1e3e 0aaa f2ba 1295 133d
000003e0: 14b3 a83d 329f b63e 8a3b 97be c5cd 6f3e
000003f0: 5205 42bd a970 99bd 34dd 373e 48ff 2e3e
0.14552972 -0.428765 0.069940954 -0.2069204 -0.03265564 -0.06348227 -0.25137484 -0.26117468
0.3852069 -0.21068093 0.30921748 -0.0723093 -0.06387288 -0.035643507 0.15136366 -0.0116513455
0.14153473 -0.24200635 0.08197945 -0.31815842 0.44443396 0.1521673 -0.24718449 -0.12499956
0.33851475 0.027864276 -0.24516466 -0.008283811 0.23112613 0.042404488 0.009220786 -0.15929337
-0.45493925 -0.116144456 0.05758787 -0.0749655 0.33451897 -0.026171984 0.0426031 0.11916417
0.313363 0.19458704 0.08392545 0.017541692 0.22097456 -0.09940311 -0.38770407 -0.0034243327
-0.09441296 -0.0064300015 0.1945843 -0.059714474 -0.1321867 0.23162837 -0.042308208 0.12959611
0.2539986 0.16983882 -0.1548647 0.08953733 -0.0055805454 0.23049061 0.43336588 -0.2247053
0.25139132 0.043110557 -0.030959712 0.17130677 -0.104048 -0.27609578 -0.11444263 -0.1259928
0.19356276 0.27686292 0.12775198 0.099544756 0.42739552 0.037230764 0.14197384 -0.13381134
-0.10528542 -0.033936225 -0.03714926 0.0065375026 0.14626095 0.2694461 -0.10796255 -0.025902627
-0.112666234 0.42068788 -0.079444446 -0.010950578 -0.17256168 0.07461269 0.073434316 0.0832086
-0.28068632 0.12764885 -0.1659018 -0.26903886 0.086552806 -0.004823818 -0.05624314 -0.1623014
0.35795692 -0.012589011 -0.0035507272 -0.038143862 0.22917795 -0.08412729 -0.41214553 0.025006212
-0.0625466 0.030939644 0.21744385 0.26328787 0.17583516 0.13773343 -0.0371601 0.42559367
-0.13198937 0.08483429 0.2947849 0.26820192 0.29125777 -0.3533074 0.034443818 -0.124108896
0.16868046 0.38291764 -0.051115025 -0.040930074 0.28664395 -0.15306576 0.17074654 -0.2592892
0.061112154 0.22088566 0.13158555 -0.060290147 0.1729059 0.08830221 -0.024491757 -0.31003612
0.18283767 -0.07228776 -0.0502479 0.14831893 0.0040199887 0.31038034 0.16451827 -0.195943
0.17246224 0.117487855 -0.09567722 0.15016815 0.111865625 0.064661056 -0.29327932 -0.2354967
-0.41673908 0.21457618 0.004554059 -0.029823968 0.21063231 -0.3509514 0.32707277 0.19400577
-0.21131591 0.14389391 0.0890844 0.27687934 -0.008703616 -0.27743733 -0.13677046 -0.052812893
-0.20925798 0.48240343 -0.053806674 -0.051051643 0.050884947 -0.14254858 0.27891293 -0.07229374
0.24740884 0.013692469 -0.32673216 0.042729486 0.20379758 0.32508707 0.06774219 -0.1330606
0.14806424 0.10040394 -0.27658898 -0.051873855 0.16373062 0.27226242 -0.023126872 0.090051
0.10975743 -0.3425723 0.22259787 -0.07233096 -0.011624725 -0.12557976 0.158004 -0.16642477
-0.23636828 0.24394555 -0.030447014 0.26408115 -0.14267115 0.13705096 0.09474729 -0.2010652
0.3016544 0.19229206 0.09764703 -0.25054753 0.2567795 -0.021264954 0.15263754 -0.10651037
0.14768414 0.41622764 -0.5151483 0.0910866 -0.3992782 -0.27183253 0.11584326 0.21871623
0.029213456 0.16255596 -0.43228823 -0.24128339 0.046516847 -0.0026216863 0.001996338 0.021064231
0.09173239 0.17106439 0.39424625 -0.250553 -0.03888649 0.15472403 -0.001851381 0.036030836
0.082372814 0.3566833 -0.29537612 0.23418339 -0.047368355 -0.07492191 0.17955476 0.1708957

network.2.bias f4 [256]
00000000: bad3 87bd 8b8d 663d a512 113e ad24 053e
00000010: e2de 48bc fb0b 23bd caaa a63d a01f 9d3d
00000020: 88b3 1a3e b26d 6b3c 8ba1 a63d 5ca8 f03d
00000030: ea96 47bc f875 103e 8554 40bd a7d1 543e
00000040: 950d debc b61c 233e 11e6 2d3e 890b 393d
00000050: a589 603d 955e 643d ec2b 0e3e 60c4 e6bd
00000060: 1a44 ebbd ba43 913e d796 ce3c cf5e 89bd
00000070: 3f50 d13d 1588 313d d8fd 9a3d 4d1c 253e
00000080: f76f 14be 7a4c 0e3c 20d8 abbc 597a 0e3d
00000090: 9495 513e 6380 5f3e 44fb bd3d d11f 453d
000000a0: d18e 173e e258 b73c 4b21 cf3c ddb7 a23c
000000b0: e85b f83d 7720 313e 88e4 db3d be30 6e3e
000000c0: 9420 9d3d 4a23 583d af37 033d 2a02 e93c
000000d0: 9cf1 573c 24b6 a0bc 5c37 44bd 8ef6 7bbe
000000e0: 4c3f 273e 6b8a bc3c b831 5b3d 532d c13d
000000f0: 5865 833d 85a6 9c3d 57eb 5f3d beb6 b73d
00000100: 0afb 2c3e ff32 693d b784 2dbd 8d2d 1c3e
00000110: 3390 3fbe dab3 223c 4237 153c 1c1b d0bc
00000120: faf8 12be 49ea 473e 99e5 a83d f785 5c3e
00000130: 2456 0f3e f0ea df3d d428 acbd a7f9 b63d
00000140: 4639 f33d 446d 0fbd 4fa2 883e a406 8cbc
00000150: 828f 823e 3bf2 b13d def6 d4bc 6364 353c
00000160: 9549 153e 644a 9ebd b3cc 473e 8ec4 1d3d
00000170: 6ef7 b93d b520 bbbd c26f 1f3d 439d ec3b
00000180: 8545 d73d c13b 013e e16e 073e 386c 3c3d
00000190: 56d1 b83d 652d ad3c dbbd 13bc c306 e0bc
000001a0: a0af 88bd 306b 223e dd71 bbbd 2329 97bb
000001b0: 5eb5 003e ab16 8c3d c4c1 ffbc f00c f23d
000001c0: bd57 8c3b 68c3 3abd 7fbe aebd 258c f0bd
000001d0: 976d debd b13d 90bd 2edc 433d 6a92 7c3d
000001e0: 1f51 7bbd 01b7 dc3d b0cc 143e b2ed 353e
000001f0: 13f7 d5bc 017b 5b3e 8c80 16be 5314 e63d
00000200: a398 753e f48e de3d d36d eabd f486 2e3e
00000210: 95b1 9c3d 7d20 8c3c b76c c7bd dcac 273e
00000220: 1859 063e b46f 093e 8a64 583d 30be 413d
00000230: 9b03 23bd a468 103e 75c3 b7bd 9138 153e
00000240: fc27 ce3d b677 e83b ac21 ff3c 9bf9 323e
00000250: 4221 8b39 d255 473e 21d9 e53d 6287 2ebe
00000260: 6445 053b bd2e 28be 817e 54bd 2b6e 163e
00000270: c7c8 eebc e14f cdbd 0b38 803e 8b6e 08bd
00000280: 6ab3 2a3e a03e 0cbd 62bd 243e 45bf bf3d
00000290: 2217 d03d 291d 8abd 761e 833b b8dd 43bd
000002a0: 4fff 953e 2aa0 aa3c f3cf 5c3d c5f2 363c
000002b0: 378d fb3d e6ab 943e 3359 fb3d 4c97 fe3c
000002c0: 8a88 c4bb 49b0 463e ba0f a13d 307a ad3d
000002d0: 249d 18bd 69df 113e e1a4 48bd b9d4 1fbd
000002e0: 19c0 5e3c 7c4e 2fbe dbe3 ae3d ebfa 6ebd
000002f0: a285 a23d 4d17 4e3e 1c0a d93d 6415 1ebd
00000300: 913f 18be 0389 313e 234c 87bd 4e02 b03d
00000310: e3bb bc3d 36d6 823e 212d 8d3c 1c6e 113d
00000320: f524 583e da0b 313e 5829 223c 3489 d83d
00000330: 7160 913d 6b91 b23d 861e e53c ca8a 5a3e
00000340: afc5 8e3c 1622 513e dcee 333e 6f48 7ebd
00000350: 2323 71bd bf91 883e 5cfe 113c ee59 a93d
00000360: 62c3 0b3d 37ac 97bc 84c2 173e 9ed7 1a3d
00000370: 18c9 df3d 8157 143e 41b1 0d3e f1eb 223e
00000380: d378 923d 1900 2ebe 67fc c53d 02a7 90bd
00000390: 2951 4e3d bf15 c23d 33f5 443d cace 463b
000003a0: f153 1a3e 5e23 d93d eec8 023e 56f8 8c3c
000003b0: bf29 093e c398 92bd fb57 e03d 2a48 23bc
000003c0: b940 243e be16 a1bc 10ee 8a3e 2a86 c03d
000003d0: b5c5 ca3c d0d6 373e ef60 da3d a8ca b43d
000003e0: bec2 873d 9482 a83c 61ba 443e 4d0a 6ebd
000003f0: 872a 9f3b a123 383d 3f0b de3d 426a 363d
-0.066321805 0.05628733 0.14167269 0.13002272 -0.012260171 -0.039806347 0.08138044 0.076720476
0.15107548 0.014369415 0.081362806 0.11750862 -0.012181977 0.14107502 -0.046955604 0.20783101
-0.027106086 0.15928921 0.16982295 0.045177016 0.054818768 0.055754263 0.13883942 -0.11267924
-0.11487599 0.28371984 0.02521841 -0.067075364 0.10220384 0.04334267 0.07567948 0.16124077
-0.14495836 0.008685226 -0.02097708 0.03478465 0.20467216 0.2182632 0.09276441 0.048126046
0.14800574 0.02238125 0.02528443 0.019863063 0.12126905 0.1729754 0.10736948 0.23260781
0.076722294 0.05276803 0.032035526 0.028443415 0.013180163 -0.019618101 -0.047904357 -0.24605772
0.1633274 0.023015222 0.053514212 0.09432473 0.06415814 0.076489486 0.054667797 0.08970402
0.16892639 0.0569334 -0.042362895 0.15251751 -0.18707351 0.009930575 0.009107413 -0.025403552
-0.1435279 0.19522966 0.08246917 0.21535479 0.13997704 0.10933483 -0.08406225 0.08934336
0.118761584 -0.035016313 0.26686332 -0.01709301 0.25500113 0.0868878 -0.025996622 0.011071297
0.1457885 -0.07729033 0.1951168 0.038517527 0.090803966 -0.09137098 0.03892494 0.0072208955
0.10511307 0.1262045 0.1322589 0.046001643 0.09024303 0.02113981 -0.009017433 -0.027346974
-0.06674123 0.15861201 -0.09152577 -0.004613058 0.12569186 0.06840261 -0.031220324 0.11818874
0.00428292 -0.04559651 -0.08532428 -0.117454804 -0.10860746 -0.07043017 0.0478174 0.06166307
-0.06135666 0.10777093 0.14531207 0.17766455 -0.02611879 0.21433641 -0.14697474 0.11234345
0.23984008 0.1086711 -0.114467286 0.17043668 0.076510586 0.017105335 -0.097375326 0.16374534
0.13119924 0.13421518 0.052830257 0.047300518 -0.03979836 0.14102417 -0.08972827 0.1457236
0.1006622 0.007094349 0.031143986 0.1747803 0.00026536925 0.19466332 0.11223055 -0.17043832
0.002033555 -0.16424079 -0.051878456 0.14690463 -0.029148472 -0.10025001 0.25042757 -0.033308547
0.16670004 -0.03423941 0.16087869 0.09362654 0.10160662 -0.06743843 0.004001434 -0.04781887
0.29296347 0.020828325 0.053909253 0.011166279 0.12282794 0.29037398 0.12272873 0.031078003
-0.005997722 0.19403185 0.07864328 0.08470571 -0.037259236 0.1424538 -0.048985366 -0.039021228
0.013595604 -0.17119783 0.08539554 -0.058344763 0.07935645 0.20126076 0.10597631 -0.03859462
-0.14867999 0.17337422 -0.06606319 0.085941896 0.09215524 0.25554055 0.017233433 0.0355054
0.21107848 0.17289677 0.009897552 0.105730444 0.07098473 0.087191425 0.027968656 0.21342006
0.017428247 0.20423159 0.17571586 -0.062080797 -0.0588714 0.26673695 0.008910742 0.08269106
0.03412188 -0.018514736 0.14820296 0.037803285 0.109270275 0.14486505 0.13837148 0.15910317
0.07151952 -0.16992225 0.096672826 -0.07063104 0.05037037 0.09476804 0.048085403 0.0030335658
0.15071084 0.10602449 0.12771961 0.01720826 0.13394831 -0.07158043 0.10954281 -0.009965936
0.16040315 -0.019664165 0.27134752 0.0940059 0.024752477 0.17953038 0.1066302 0.08827716
0.06628941 0.020570077 0.19211723 -0.058115292 0.0048573646 0.044955853 0.10841989 0.04453493

network.4.weight f4 [256, 256]
00000000: 8f1c 4a3e 2a7d 273e d908 bebd 8fc8 d7bd
00000010: b811 813d 286f 52bf 9746 edbe 3c94 b3bd
00000020: 7c0e 09bd 50e7 18be 1471 e9bb aff9 6bbf
00000030: 6637 6bbf eebe 99bf db60 893e f7ef 07bf
00000040: c63a bebc 39d3 1c3e a0a2 4f3e ea08 6fbd
00000050: aae2 9fbe 0e10 19be 9e28 3abe 6731 8cbc
00000060: 78b8 913c c573 883e 5170 8b3d 9348 0e3e
00000070: 17ac 3b3d e019 4a3e 2d80 83be a4a8 78be
00000080: dab0 2ebf fa78 bf3e cd11 56bf d15f b43e
00000090: 047d 09bf cd0a 3a3e 8b77 89b9 e1ee 69be
000000a0: e223 533e e345 07bf 22aa 2cbf 4026 83be
000000b0: f5c0 933e 3fa7 d6bd 8713 54be dd70 a4bd
000000c0: 607f b13d 1d31 49be 9b54 0dbe 81b1 d8be
000000d0: 2fb2 c23d 66b1 903d d582 f2be ea19 cd3d
000000e0: 9d00 b6be e4e9 44bd e11b 67bf e51d a43e
000000f0: ea7d df3d 5993 22bf 037b 26be 935c 65be
00000100: b6fb 943d 6bbb 403e 861e 4d3d 9a58 93bd
00000110: db8b 20be 5b92 8b3e c741 65be 92a5 493e
00000120: ed15 c03e 9aa7 b43d ebb6 3abe fb1c 7a3d
00000130: fe25 203e 976a 0fbd c528 1ebe 3a96 03bf
00000140: 66f6 34be 0e89 1d3e 18e2 a83d 13f2 9bbe
00000150: 74de a03e c499 803e 4b24 c7bd 108b 4b3e
00000160: 8659 6d3e 13b0 a9be b14e d9be 91a1 58be
00000170: 02d7 ffbe 22c3 8c3d 7362 8abf 470c 873d
00000180: 1201 0c3e db60 2ebd e9b8 843e cbae 01bd
00000190: 0e31 a3be 740b ddbd 5f22 a83d 99cc a6bc
000001a0: 175f d13e 66d6 093e 0133 0c3f 0401 153e
000001b0: a48a 26be 94e4 91be adb2 41bd 2004 bebe
000001c0: f0ba 65be 685e 93be f733 89bf b00a 913d
000001d0: 1de8 e93e ea42 c2bd e3a5 5b3c 540b 74be
000001e0: 5121 dabd 1d11 56bf 9b47 b13d cbab 03bf
000001f0: ccb6 29bd c98f b03b 741c 8bbe 2d7e 90bb
00000200: 2c23 2b3e 51c3 0e3d 4152 0c3e a7af 39be
00000210: 2af1 90be b29a 19bf 80cf d13c 7142 623d
00000220: 8d17 9fbe f7bf 943e b0ab 21be 3a90 053e
00000230: 24ce c43d 3fe9 5fbe 6c7a 06bf fe63 cc3d
00000240: 07da 27be 394a bc3d 428d ee3e 46b0 223c
00000250: 8ad6 aebe 6c85 1d3e 63c6 203d 968f 793d
00000260: 9ab0 aabd b029 7cbf 47ba a83e 75dc c6bd
00000270: 30be 3d3e b93c 653e d2b2 ddbe b836 0b3e
00000280: eef6 05bf 7f51 85bd ceb9 04bd 5a43 3e3e
00000290: aaf3 b2be 7250 efbe ad34 583e 9e32 08be
000002a0: e912 93be 3081 c13b f5fb 753d 0233 2fbe
000002b0: b6d9 29bf cc71 8c3e fd12 3dbf 38cd 4e3e
000002c0: 445d 32bd 3894 893e 232b 0d3e ff3e 26be
000002d0: 5235 263f 73be b9bc d560 113e 13ea 1a3e
000002e0: 3b15 97bc 5a98 02be 476f f93b e3d8 cc3c
000002f0: 3a8d 2dbf e431 4b3d 38be 143f f53e 4fbf
00000300: dde5 143e 0aa9 58bd f382 6c3d 280e 1bbf
00000310: ad95 76bd 8ba0 d6be c206 04be c69e 65be
00000320: 6842 383e ef17 bfbd 05d5 153e 9768 45be
00000330: c2c4 2dbc 1ab1 2cbe 0a55 99bd 77a0 e3bd
00000340: 41cc 16be 7039 073d 020d 6cbf 5811 6c3e
00000350: b172 b4bc 36e4 423d 95f9 ec3d 3362 7fbe
00000360: aa31 d4bd 0c94 0dbd 22e4 d1be d57b d33b
00000370: 9889 0d3d da6e 01be b724 56bd ba20 08be
00000380: 7fab 17bf b745 503e 7498 59be 9c29 57bf
00000390: 2ca8 4ebe bb60 dc3b 2bf4 3dbf 27d8 1bbd
000003a0: 76a4 773e 4d1a 8abe e985 71bb 4ffd 73bf
000003b0: 1554 823e 6ba2 9e3e b82e 593e 990e 723c
000003c0: c56d 893d c3e8 993e 161a 23bf 832b fc3e
000003d0: 5ed3 91be 9d2a 9a3d 0598 83be db58 11bd
000003e0: 8905 423e fd46 9c3e 63c5 b23e ca66 78be
000003f0: 8964 a4be c8c0 5b3e 4ce3 0c3e 2da0 f4be
0.19737457 0.1635634 -0.09279031 -0.105363004 0.06302208 -0.8220086 -0.46342918 -0.08768508
-0.03346108 -0.14931989 -0.0071240757 -0.9217786 -0.91881406 -1.2011392 0.26831707 -0.5310053
-0.023221385 0.1531495 0.2027688 -0.05835811 -0.31227618 -0.1494753 -0.18179557 -0.0171134
0.017788157 0.26650825 0.06808532 0.13894872 0.045818415 0.19736433 -0.25683728 -0.24283081
-0.68238604 0.37396985 -0.8362091 0.35229352 -0.53706384 0.18168183 -0.00026219743 -0.22845031
0.20619157 -0.52841014 -0.674471 -0.2561512 0.28858152 -0.104811184 -0.20710574 -0.080293395
0.08666873 -0.19647641 -0.13801806 -0.42322925 0.09506642 0.07065086 -0.47365442 0.10014708
-0.35547343 -0.048074618 -0.90276915 0.32054058 0.10912688 -0.63506085 -0.16257863 -0.22398596
0.072745726 0.18821494 0.050077938 -0.07194634 -0.1567835 0.27260098 -0.22388373 0.19692066
0.37516728 0.0882103 -0.1823384 0.061062794 0.15639493 -0.03501376 -0.1544524 -0.514011
-0.17672119 0.15384313 0.08246249 -0.30458125 0.31419718 0.25117314 -0.09723719 0.19877267
0.23178682 -0.33142146 -0.4244285 -0.21155383 -0.49968725 0.06873156 -1.0811294 0.065941386
0.13672283 -0.042572837 0.25922325 -0.031660836 -0.31873363 -0.107932 0.08209681 -0.020361232
0.4089286 0.13460693 0.54765326 0.14551169 -0.16263825 -0.28494704 -0.04728954 -0.37112522
-0.22434592 -0.28782964 -1.0718983 0.070821166 0.456849 -0.09485419 0.01340625 -0.23832446
-0.10650886 -0.8361986 0.08656236 -0.5143401 -0.041434094 0.0053882343 -0.27170146 -0.0044095726
0.16712636 0.034854237 0.13703252 -0.18133412 -0.28308994 -0.6000167 0.025611639 0.055239145
-0.31072655 0.29052708 -0.1578815 0.130433 0.09609631 -0.2186632 -0.5253055 0.099800095
-0.16391765 0.09193844 0.46592146 0.009929722 -0.34148055 0.15382928 0.039251696 0.06092795
-0.08334465 -0.9850111 0.32954618 -0.097100176 0.18529582 0.22386445 -0.43300492 0.13595092
-0.5232991 -0.06509685 -0.03240376 0.1858038 -0.34951526 -0.46741062 0.21113844 -0.13300559
-0.28725365 0.005905293 0.060054738 -0.17109302 -0.66347826 0.2743057 -0.738571 0.20195472
-0.043545976 0.26870894 0.13785987 -0.16234969 0.6492511 -0.022673821 0.14197095 0.15128355
-0.01844274 -0.1275343 0.0076121422 0.025005763 -0.6779362 0.049608126 0.5810275 -0.8095544
0.14540811 -0.052895583 0.05774207 -0.60568476 -0.060201336 -0.4191936 -0.12893203 -0.22423849
0.17994082 -0.09330737 0.14632042 -0.19278179 -0.010605993 -0.16864434 -0.07486923 -0.111145906
-0.14726354 0.03301376 -0.9220735 0.23053491 -0.022027345 0.04758092 0.115710415 -0.24939804
-0.10361035 -0.034565017 -0.40994364 0.006453971 0.034555048 -0.12639943 -0.052281108 -0.13293734
-0.5924606 0.20339094 -0.21249563 -0.84047866 -0.2018134 0.0067253984 -0.74200696 -0.038047936
0.2418383 -0.2697319 -0.0036853498 -0.95308393 0.25454774 0.3098329 0.21209228 0.014773988
0.0671039 0.30060396 -0.6371168 0.49251947 -0.28481573 0.07527659 -0.2570192 -0.03548513
0.18947424 0.3052291 0.3491622 -0.24257961 -0.32107952 0.21460259 0.13758582 -0.47778454

network.4.bias f4 [256]
00000000: 3f65 d9bd cce9 f83d 6afd 1abe 6641 62be
00000010: d7b4 6d3e fb9c 8b3d f581 8ebc 77e3 543d
00000020: c9bf 80bd f2fb 493d 15c4 e9bd a294 af3c
00000030: 1c2b 4f3d fef5 3b3d dbc3 c73e 081a 3e3d
00000040: 1c36 ec3d a7c0 69bd 238a bf3d 062f aa3c
00000050: 3365 73bc 48a5 233e 428b 3bbd f0bd 7f3d
00000060: 88dd c8bd 4607 503d 51ba 2f3e f34a 103e
00000070: c784 e2bb f8da 9cbd b170 d4bc 2128 c9bd
00000080: 266e 8e3c 8aed 1cbe 1284 763d 2ef1 b7bd
00000090: 3e18 d5bb 642e 42bd cc11 17ba fd9a 31be
000000a0: c12f 073e d96e d7bd f7b9 003e b831 b2bd
000000b0: cf31 ff3d e71c 25bd 9e1a e2bd 12ff f9bd
000000c0: 6a87 0abd cddb b4bd 3582 f33c bc17 80bd
000000d0: 5f70 c43c 2436 d6bd d158 d03d 390c 9f3d
000000e0: 5c28 56bd 183a 9a3c 9aac ac3e 25b3 503e
000000f0: 8841 25bd d155 973d fb57 debd 6240 f43c
00000100: aff8 9c3c d923 be3d ecee a03d 9f6c 483d
00000110: 73a1 6fbd 5e60 9dbc 992b f1bb af31 d5bd
00000120: 269d 2bbe 200a 1c3d 2ec2 9b3b 4e64 0a3e
00000130: c5dd 8f3c 7298 ac3d 9044 85bd 724e 433d
00000140: 6143 e83d 2bde c33d 6645 1a3d 5083 afbb
00000150: 5233 713d 49d8 043c 586c 1b3d 2d26 3ebe
00000160: 093b 12bc 36dd c4bc ab8b b43b 2c48 a5bd
00000170: a19d 9abd 43c6 9fbd a424 29bb 5dd8 20bd
00000180: 052e 793e 807c 113e 2650 cb3c 669b 33bc
00000190: a9ac c43d d44b 333d 6499 34bd e431 1f3c
000001a0: 0cc2 3bbe 330c 0bbd c776 af3c 14d6 b6bb
000001b0: 32b1 c63d c65a 923c 4510 4abb 35df 123b
000001c0: 5d20 843e a9e5 9ebd 075a 403d 9aff 7d3e
000001d0: 777d 26bb 0cf3 acbd 07ec c1bd 0e77 0cbe
000001e0: 4194 f0bd 1bd3 5dbd 75c2 40be 665e ff3d
000001f0: f718 583e f573 183c 15a6 6aba 5820 babd
00000200: 9c0e 9abc 825d e03d a319 ecbd 9578 cd3c
00000210: adfb 06be 9aa7 0fbc 09c9 ab3d b6d0 a6bd
00000220: 0985 f33d 20ac f23d 31e6 043c b117 9d3d
00000230: eb96 023e 671a ebbd 4c77 07be 087c 80bc
00000240: e94e 363d 97a7 643d fde1 cf3d 340a 0f3e
00000250: 15c6 a6bd 4abc 233c e0cc c53d 6abf 1ebe
00000260: 7f58 a43c d732 fa3b 0657 a93d f19f 2e3e
00000270: e72b 133d 1822 afbc e592 243e 72ae b13d
00000280: e16c 7c3c 2f3c c63d 88fb 193b 2110 c1bd
00000290: dd9f 633d 5fcc 623d 8d95 e4bd 6348 6a3d
000002a0: fc21 703d 3581 bf3d c585 dfbc 287b 3bbd
000002b0: 04ef d63c 87f2 143e fbf9 833d 016a 933d
000002c0: 5b6b e73d 30a0 893d f62a abbc 19f8 103d
000002d0: ed61 fcbd eda1 ad3c 954d 9ebc e5c4 0c3e
000002e0: d49c 413d 44c9 703d 87a0 183e f214 2b3d
000002f0: 6ef4 fa3c dc8e cebd 20f9 203c 7a6f d6bd
00000300: 5e00 75bd 1ab4 4ebc 805a a43c 7b15 093d
00000310: a68c da3c df24 383e dc3f cebd 7d08 13bd
00000320: 99a3 eb3c 2fd8 79bc 45a9 353c 9229 103e
00000330: d995 a4be daab b8bd 4aea b0bb 63c3 ec3d
00000340: 723c ff3c 1663 6abd 46a3 5cbd 6b5f 153e
00000350: 3e5a 113d 871a 0f3d d06e 4e3d 4f43 e2bd
00000360: 0ebd 0bbe 5cd0 cc3b dda7 8dbd 866d 08be
00000370: ec83 6f3e 86b5 7ebc d43b 703c 0e0d 913b
00000380: e9c6 37bd efb9 b0bd 65f8 7dbd 37fe 6c3d
00000390: 8b65 483d 21df 933d a510 0e3d c09b 393d
000003a0: 1c6b 953d 4c98 443c 04c3 25be 2544 1b3d
000003b0: 5737 65bd 2afd 29bd 2eb4 5c3c a6c4 143d
000003c0: 6db4 34bd bc38 a43c f2b1 bbbc bebd 053c
000003d0: 31d9 f43d f10c 76bd fff1 233d 0aea 12bd
000003e0: ee14 ff3d e8bd a4bc 1e7c 78bd 0a36 c53c
000003f0: 2d6f 0a3d ca67 4a3d f1d5 cb3c d55c fd3c
-0.10615014 0.12153968 -0.15135732 -0.2209526 0.23213516 0.06817051 -0.017395953 0.05197474
-0.0628658 0.04931254 -0.11414353 0.021433178 0.05057822 0.045888893 0.39016613 0.046411544
0.11533758 -0.057068493 0.09352519 0.020774376 -0.014855671 0.15981019 -0.045787103 0.062436998
-0.09807879 0.050788186 0.17160918 0.14091091 -0.006912801 -0.076589525 -0.025932642 -0.09822107
0.017386507 -0.15324989 0.060184546 -0.08981548 -0.006503134 -0.047407523 -0.0005762845 -0.1734428
0.1320181 -0.105191894 0.1257094 -0.08700889 0.12460672 -0.040310767 -0.11040233 -0.12206854
-0.033820547 -0.08830986 0.029725173 -0.06254527 0.023979364 -0.10459545 0.101731904 0.07766003
-0.052284583 0.01882653 0.33725435 0.20380838 -0.0403457 0.07389415 -0.10856625 0.029815856
0.01916155 0.09284181 0.07858071 0.048931714 -0.05850358 -0.01921099 -0.0073599336 -0.10409867
-0.16759166 0.038095593 0.0047533726 0.13514826 0.017561803 0.08427514 -0.06507218 0.047682233
0.113409765 0.095638596 0.03766384 -0.00535623 0.058886833 0.008108207 0.03794512 -0.1856925
-0.008925208 -0.024031263 0.005509814 -0.08070406 -0.075495966 -0.07801487 -0.0025809193 -0.03926884
0.24333961 0.14207649 0.024818491 -0.010962343 0.09603245 0.043773487 -0.044091597 0.009716485
-0.18335742 -0.03394718 0.021418942 -0.0055797193 0.09701766 0.01786555 -0.0030832451 0.0022410874
0.2580594 -0.07758648 0.046960857 0.24804536 -0.0025404373 -0.08444795 -0.09468847 -0.13717291
-0.11747027 -0.054156404 -0.1882418 0.12469177 0.21103273 0.00930499 -0.000895114 -0.090882
-0.018805794 0.10955335 -0.11528327 0.025081912 -0.13181944 -0.008767987 0.08387954 -0.08145277
0.11890609 0.118492365 0.0081115225 0.076705344 0.12752883 -0.11479645 -0.13229102 -0.015684143
0.04450885 0.05582389 0.10150526 0.13968736 -0.0814325 0.009993622 0.096582174 -0.15502706
0.02006173 0.007635455 0.082685515 0.170532 0.03593054 -0.021378562 0.16071661 0.08675851
0.015406818 0.09679448 0.0023495872 -0.094269045 0.05557238 0.055370685 -0.11161337 0.05719794
0.05862616 0.09350816 -0.027285466 -0.045771748 0.026237018 0.14545642 0.06444164 0.07197953
0.11299773 0.067200065 -0.020894509 0.035392854 -0.12323365 0.021195376 -0.019324103 0.13746984
0.047268704 0.05878569 0.14904986 0.041768022 0.030634131 -0.10085842 0.009825021 -0.10470481
-0.059814803 -0.012616182 0.020062685 0.03346775 0.026678395 0.17982815 -0.10070774 -0.035896767
0.028764533 -0.015249296 0.01108772 0.14078358 -0.32145575 -0.09017153 -0.005399023 0.115607046
0.031156752 -0.057223402 -0.053866647 0.1458718 0.035486452 0.034937408 0.050398648 -0.11047994
-0.13646337 0.0062504243 -0.06916783 -0.1332303 0.23390168 -0.015546208 0.014662702 0.004426605
-0.04486743 -0.08629214 -0.062004466 0.057859626 0.048924964 0.07220293 0.034683842 0.04531455
0.0729582 0.011999201 -0.16187674 0.037906785 -0.05596098 -0.0415012 0.013470693 0.03632035
-0.04411738 0.020046584 -0.022912 0.008162914 0.119554885 -0.060070936 0.040025707 -0.03586773
0.12455164 -0.020110086 -0.060665242 0.02407362 0.03379743 0.049415387 0.024882289 0.030928055

network.6.weight f4 [4, 256]
00000000: 291e 71be 36e2 8d3e b68e 0dbf 6600 423f
00000010: acfd 903e 2b5e d83e 3bec 81be 395a 0ebf
00000020: 6a44 03bf 6d08 38bd 9ea0 24bf 8a1d 9fbe
00000030: f3f1 903d 8596 f13e 5236 683e 51a9 8b3f
00000040: c2b8 5e3f c973 093f da26 23bf 2931 8bbe
00000050: 5a92 2c3f 67cb 18bf c868 ac3e 7f68 193f
00000060: e242 8d3f 36e7 07bf 5306 03bf 62fb 3b3e
00000070: afc3 a8be ec46 083f 40f5 20bf 3fba 6e3e
00000080: ea84 503f 3fd2 c13e 3c66 27bf 887d 613f
00000090: 0180 dd3e 877f 543f 7abe ec3f 5bba 40be
000000a0: c724 45bf fb01 04bf a5b3 e93e 19f6 1abf
000000b0: d79b 483e fe39 5c3f f2ee 8ebe a863 a83f
000000c0: 2265 0abf 92a0 94be 1ff2 18bf 3275 643f
000000d0: 0212 923e f040 1ebf 0e4f 933e 9186 1c3f
000000e0: 3ce8 833f 1915 da3e 4dfb 0e3f 433d 9f3e
000000f0: 8e11 7a3f 9871 b83e 0d61 563f 752a abbf
00000100: d80a 5e3f 9608 c13e 61b3 93be 8d51 c03e
00000110: af29 5d3f e951 21bf c7a0 1bbf 7503 0bbf
00000120: 841e 51bd 62c4 04bf 980e bbbe 7e39 a73e
00000130: 202a b9be 5cdc db3e 347c f2be 1174 513f
00000140: 30e5 6f3e 2722 a5be dc79 183f 90cf 5a3f
00000150: 1bd4 debe 3f26 603f 1c09 b1be b073 a1be
00000160: 779c 9a3f 4ff9 6c3f dbac d13e 3bc9 16bf
00000170: 79af 9bbe ee4c 2ebf c5bd d23d adab 7c3f
00000180: 25dd 6e3e df0e e03e c7d3 123f af2c e5bd
00000190: 7ed3 e03e 596f 993e 9d06 edbe aa79 abbe
000001a0: 41dd 5d3f 7faf ddbe f0b4 83be f33c 27bf
000001b0: 1022 ae3e dc6a 213f f30a 22bf 08ec d4be
000001c0: 4760 d43e 08fa 0b3f 5e85 2f3f 6e9c a43e
000001d0: c65b 0c3e 7256 393f c33f 333f dba0 7c3f
000001e0: f438 843f 5d4c d2be b7a9 ea3e 8491 083f
000001f0: f96f 043f de1c 353f 77df c3be 439d ca3e
00000200: 1728 44bf 07f0 2d3f 4181 e53e 6bc7 ac3e
00000210: f3f0 483f 43df 46bf edd1 0b3f 47e4 863f
00000220: a55b 18be b73f 463f d531 3d3f 34e0 eebe
00000230: 28d7 0c3f a3e8 27bf 779b a9bd eb0c f73d
00000240: 6636 db3e a37f 20bf d6bf 903e 013b f93e
00000250: 6ee0 b0be 1382 18bf 8179 d43d 5c06 643f
00000260: 50df cdbe ea3a 273f ac6e 073f 5ca6 423f
00000270: d30c 413e ec98 a4be ae48 9c3e 300a b93e
00000280: 868b dc3e aebc 10be aa49 98be 96bd 2b3f
00000290: 50ef 3ebf 7fbc 583f 09c1 32bf 1a40 333f
000002a0: 9650 113f 55e4 a33e a37b 3dbf d352 053f
000002b0: 2ad4 cc3e 6fac d3be 8b28 bebe 3893 3e3f
000002c0: 46a6 0a3f 598a 04bf 7403 6d3f 940a 6c3f
000002d0: 2900 22bf 9ad9 17bf 8988 633f 329b b83e
000002e0: e0c0 e53e d898 413f 2047 853e 12c0 cb3e
000002f0: e529 f2be 8f3e 76be 1ce1 0cbf c3dd c5be
00000300: a438 943f 1773 dbbe 6758 653f eace c43e
00000310: 5c3c fabe f6dc c73e 6927 b9be 4def 7e3f
00000320: f5f5 3d3f ccd7 4c3f f5da b5be bfbb 693f
00000330: be08 6d3f c2a8 0f3f 75d4 c2be d47c d83e
00000340: a742 d5be 3b4c d4be 2695 a83e 93f9 3dbf
00000350: ebf4 653f c654 9dbe 8d5e 083f bb2d a33f
00000360: cd14 16bf 81b0 a53e b1a6 0e3f 7d60 f0be
00000370: eecd 9c3e 91ac 8f3f 55ae d8be 36f6 483e
00000380: 638b eebe 6999 203f c0f6 d0be e427 333f
00000390: 6902 77be 4542 963e 6f9b a33e a42f 98be
000003a0: cc48 6d3e 49e1 303e b242 f0be 4de7 b83e
000003b0: 0dc1 753f 8d40 88be 9309 c1be 622e e53e
000003c0: 2ffe 033f 26e8 593f 1355 2abf 0f37 3e3f
000003d0: f812 fbbe db6b d2be 4eb0 143f 503a 6e3f
000003e0: 42f6 6d3f cc87 c4be 02f7 34be 0795 c6be
000003f0: fc24 d33e b0af 223f 1227 4f3f 602a 3f3f
-0.23546661 0.27711648 -0.55295885 0.7578186 0.28318536 0.42259344 -0.25375542 -0.5560642
-0.51276267 -0.04492991 -0.6430758 -0.31077224 0.07077398 0.4718515 0.22676972 1.0911046
0.8700067 0.536923 -0.6373116 -0.27185944 0.67410815 -0.5968537 0.33673692 0.59925073
1.1036036 -0.53087175 -0.51181525 0.18357614 -0.32961795 0.5323322 -0.6287422 0.23313235
0.8145281 0.37855718 -0.6539037 0.8808217 0.43261722 0.8300709 1.8495629 -0.18821089
-0.7700924 -0.5156552 0.4564487 -0.60531765 0.19590698 0.8602599 -0.27916676 1.3155413
-0.54060566 -0.29028755 -0.5974445 0.89241326 0.28529364 -0.61817837 0.2877125 0.6114283
1.0305247 0.4259422 0.55852205 0.31101426 0.97683036 0.36024165 0.8374184 -1.3372332
0.86735296 0.37701863 -0.28847793 0.37562218 0.8639173 -0.6301561 -0.607922 -0.5430215
-0.051054493 -0.51862156 -0.36534572 0.3266105 -0.3616495 0.42941558 -0.47360384 0.8181773
0.23427272 -0.3225262 0.5956094 0.85472965 -0.435212 0.8755836 -0.34577262 -0.31533575
1.2078999 0.92567915 0.4095219 -0.58900803 -0.30407313 -0.68086135 0.10290102 0.98699456
0.23326547 0.43761346 0.57354397 -0.11190163 0.43911356 0.29967764 -0.46294108 -0.3349126
0.8666573 -0.43297955 -0.25723982 -0.65327376 0.34010363 0.6305368 -0.6329796 -0.41586328
0.41479704 0.5467839 0.6856288 0.32150596 0.13706884 0.7239753 0.7001917 0.98682946
1.0329881 -0.41073886 0.45832607 0.5334704 0.51733357 0.7074717 -0.38256428 0.39573106
-0.7662367 0.6794438 0.44825175 0.33745894 0.7849266 -0.7768442 0.54617196 1.0538415
-0.1487871 0.7744097 0.7390416 -0.46655428 0.550158 -0.6558935 -0.08281606 0.12063011
0.4281494 -0.6269476 0.2827136 0.4867783 -0.34546226 -0.5957348 0.103747375 0.89072204
-0.40209436 0.6532427 0.52903247 0.76035094 0.18852548 -0.3214792 0.305242 0.36140585
0.43075198 -0.14134476 -0.297437 0.6708616 -0.7458391 0.8466262 -0.698258 0.70019686
0.5676359 0.3201014 -0.7401678 0.52079505 0.40005618 -0.41342494 -0.37140307 0.7444339
0.54159963 -0.517736 0.92583394 0.9220364 -0.63281494 -0.5931641 0.8888021 0.36055905
0.44873714 0.75623846 0.26030827 0.39794976 -0.47297588 -0.24047302 -0.5503099 -0.38645753
1.1579785 -0.42861244 0.89588016 0.38439113 -0.48874176 0.39035767 -0.3616288 0.99583894
0.74203426 0.8001678 -0.35518613 0.913021 0.92591465 0.5611688 -0.38052717 0.42282736
-0.41652414 -0.4146441 0.3292629 -0.74208945 0.8982684 -0.3072874 0.53269273 1.2748331
-0.5862549 0.32361224 0.557231 -0.46948615 0.30625862 1.1224538 -0.42320505 0.19625172
-0.4659072 0.62734085 -0.40813255 0.69982743 -0.24122013 0.29347435 0.31954524 -0.29723847
0.23172301 0.1727344 -0.46925884 0.36113968 0.959977 -0.26611748 -0.37702617 0.4476195
0.5155973 0.85119855 -0.6653606 0.7430276 -0.4903791 -0.41097912 0.5808152 0.9305773
0.92953885 -0.38384855 -0.17672351 -0.38785574 0.41239154 0.6354933 0.8091899 0.74674034

network.6.bias f4 [4]
00000000: a3ae 0e3c 2560 063d ebfd d63d 7e0f 2bbd
0.008708629 0.032806534 0.1049765 -0.04176282
