models/dqn_lunarlander.pth (torch, 543485 bytes, 8 tensors)

network.0.weight f4 [256, 8]
0	0xbeb73f8d	-0.35790673
1	0x3e91c0a6	0.28467292
2	0x3f652b92	0.8951961
3	0xbf119074	-0.5686104
4	0xbca7f36a	-0.020501811
5	0xbe3663d4	-0.17811519
6	0x3ef98426	0.48733634
7	0x3b414879	0.002949266
8	0x3fa6ce4e	1.3031709
9	0xbe482d4c	-0.1954853
10	0xbf24ff7b	-0.6445233
11	0x3de8b6f1	0.11363018
12	0x3f0af013	0.54272574
13	0xbdacf972	-0.084460154
14	0x3e51929b	0.20466082
15	0x3c731674	0.014836896
16	0x3f24d597	0.6438841
17	0xbee77501	-0.45206454
18	0xbec789cb	-0.38972315
19	0xbe458976	-0.19290718
20	0x3ee746d3	0.45171222
21	0x3f69e63b	0.9136693
22	0x3ed793b9	0.4210489
23	0xbf067921	-0.5252858
24	0xbe60f8b4	-0.21969873
25	0x3f1955a6	0.59896314
26	0x3f603257	0.8757681
27	0xbf47ead2	-0.7809268
28	0xbe1eb952	-0.15500382
29	0xbddb93d1	-0.10721553
30	0xbe6c71b7	-0.23090254
31	0x3eea6982	0.4578362
32	0xbf6d67a6	-0.9273628
33	0x3ec877b3	0.39153823
34	0xbe729836	-0.23690876
35	0xbec2093e	-0.37897676
36	0xbe9996af	-0.29997775
37	0xbe9b87ab	-0.30376944
38	0xbe85c321	-0.26125434
39	0x3cd1ce1f	0.025610982
40	0xbf283644	-0.657078
41	0x3dd38535	0.103281416
42	0x3c41d1b5	0.011829783
43	0x3ed209ff	0.4102325
44	0xbea153c9	-0.31509236
45	0x3f2e1166	0.679953
46	0x3efc31ca	0.49256736
47	0x3f4449cc	0.76675105
48	0xbbd1c7d1	-0.006401994
49	0xbe116fe2	-0.14202836
50	0xbe5ccc7a	-0.21562377
51	0x3e660f1b	0.224667
52	0x3edb12ce	0.42787784
53	0xbe9c594d	-0.3053688
54	0xbe75ea75	-0.2401522
55	0x3edc1db7	0.4299142
56	0xbe98d5aa	-0.29850513
57	0xbe4f041d	-0.20216413
58	0x3f89a0b4	1.0752168
59	0xbed9b0b1	-0.42517617
60	0x3ef64888	0.48102212
61	0x3f6b9790	0.9202814
62	0x3ed3603a	0.41284353
63	0xbe5adbd9	-0.21372928
64	0xbe3f54d2	-0.186847
65	0x3e530e86	0.20611009
66	0xbd738eec	-0.059462473
67	0x3e2b6e38	0.16741264
68	0xbe4e7e27	-0.20165311
69	0x3eaaf486	0.33389682
70	0x3ea7cb25	0.32772174
71	0x3bcf4e0b	0.006326442
72	0x3ee19676	0.44060105
73	0x3ce8e1b1	0.02842793
74	0xbf4af42b	-0.7927882
75	0x3d32f3fc	0.043689713
76	0x3e13e645	0.1444331
77	0xbed5f286	-0.41786593
78	0xbdad151e	-0.084512934
79	0x3f0cb3e6	0.54962003
80	0xbf2f7272	-0.68534005
81	0x3eb68fac	0.35656488
82	0xbd468124	-0.048463
83	0x3c942ae4	0.018086858
84	0x3ec774e2	0.38956362
85	0xbe961259	-0.29310873
86	0xbf7d2069	-0.9887758
87	0x3f265122	0.6496755
88	0x3e891339	0.26772478
89	0xbeb564ef	-0.3542857
90	0x3f5711fc	0.84011817
91	0x3eb47c53	0.35251102
92	0x3f073e63	0.5282957
93	0xbd9e3612	-0.07725157
94	0xbed1a85e	-0.40948766
95	0x3ea8c6fe	0.3296432
96	0xbf8f0cbf	-1.1175765
97	0x3f1b402e	0.60644805
98	0xbd988490	-0.07447159
99	0x3e9e725d	0.30946627
100	0xbf9e24b9	-1.2354957
101	0xbe80a15b	-0.25123104
102	0xbe82eb28	-0.25570035
103	0xbd51e6f4	-0.051245645
104	0x3e237fb2	0.1596668
105	0x3f1c1ede	0.609846
106	0x3e6b4c16	0.22978243
107	0x3f268c29	0.6505762
108	0xbf67c187	-0.90529674
109	0xbeab7019	-0.3348396
110	0xbeaf6d21	-0.34262946
111	0xbe99d435	-0.30044714
112	0x3e146e44	0.14495188
113	0x3e64eeac	0.22356671
114	0xbc722a3e	-0.014780579
115	0xbeba4df4	-0.363876
116	0x3f5fa540	0.87361526
117	0x3f05f746	0.52330434
118	0xbd9280e8	-0.07153493
119	0x3d619cbf	0.055081125
120	0x3b863506	0.0040956764
121	0x3e9eca8f	0.31013915
122	0xbe8464d4	-0.25858176
123	0xbe3713ad	-0.178786
124	0xbd8deb62	-0.06929661
125	0xbf006f25	-0.50169593
126	0xbf060a7c	-0.5235975
127	0xbd200452	-0.03906662
128	0xbe330709	-0.17483152
129	0x3f13192c	0.57460284
130	0x3f4bab4d	0.7955826
131	0xbd9052de	-0.07047056
132	0xbf20b8e9	-0.6278215
133	0x3e3c74ea	0.18403974
134	0xbe8b5c2b	-0.27218756
135	0xbcaaa813	-0.020832097
136	0x3e26381f	0.16232346
137	0x3e81db8f	0.25362822
138	0xbf023310	-0.50859165
139	0x3e9b0c70	0.30282927
140	0xbe9713a5	-0.29507175
141	0x3e7daf8d	0.24773999
142	0x3e27a70e	0.1637232
143	0xbeb076dd	-0.34465685
144	0x3e70f01e	0.23529097
145	0xbfaded04	-1.3587956
146	0xbf38df1b	-0.7221543
147	0x3cc1790a	0.023617286
148	0xbeb23e7a	-0.3481329
149	0x3f3b0150	0.7304888
150	0xbea4338a	-0.3207057
151	0x3f0d8af6	0.5529016
152	0x3fa0c745	1.2560812
153	0xbe8c4c17	-0.27401802
154	0x3ed86b92	0.4226957
155	0xbe9fb539	-0.3119295
156	0xbed34caf	-0.41269442
157	0xbe846620	-0.25859165
158	0x3eb7518e	0.3580441
159	0xbe722a0d	-0.23648854
160	0xbfa058a6	-1.2527053
161	0x3ead5205	0.33851638
162	0xbf030a8c	-0.5118797
163	0xbe312b0a	-0.17301574
164	0xbde746ef	-0.112928264
165	0x3f545612	0.8294383
166	0xbe8022b2	-0.2502647
167	0x3d73d4a7	0.059528973
168	0xbde71950	-0.11284125
169	0x3f14e11f	0.5815601
170	0x3e26fb9f	0.16306923
171	0xbeb20899	-0.34772184
172	0x3f430311	0.76176554
173	0xbe924aeb	-0.28572783
174	0xbe7661f5	-0.24060805
175	0x3ee78b09	0.45223263
176	0x3e8686d8	0.26274753
177	0x3f16023c	0.5859716
178	0x3d8c753c	0.06858298
179	0x3ef73d6c	0.4828905
180	0xbf878cdc	-1.0589862
181	0xbf0ae732	-0.54259026
182	0xbf15f33a	-0.5857426
183	0xbd82b692	-0.06382479
184	0x3e6dff9b	0.23242037
185	0x3ce9774c	0.028499268
186	0xbb55c51b	-0.0032618705
187	0xbd2712d5	-0.040789444
188	0xbef30d59	-0.4747112
189	0xbee94518	-0.45560527
190	0xbf595a94	-0.84903836
191	0xbd2e8134	-0.042603686
192	0xbe1d3764	-0.15353161
193	0xbf2c7a94	-0.6737454
194	0xbf3cc752	-0.7374164
195	0xbe534652	-0.20632294
196	0x3f00ab66	0.50261533
197	0x3e265460	0.16243124
198	0x3eb78ed9	0.35851172
199	0x3ddff45d	0.109352805
200	0x3e81c04a	0.25342017
201	0x3f18655e	0.59529674
202	0xbf2009be	-0.62514865
203	0xbe051b18	-0.12998617
204	0x3eb49e0d	0.35276833
205	0xbea7d166	-0.32776946
206	0x3eeb3225	0.45936695
207	0x3dde644b	0.10858973
208	0xbea2ae44	-0.3177358
209	0xbe23efa9	-0.16009392
210	0xbe683e07	-0.22679912
211	0xbc4aa5bf	-0.0123686185
212	0x3f91389a	1.1345398
213	0x3fd5549f	1.6666449
214	0xbf670069	-0.90235
215	0x3df1cc57	0.11806553
216	0x3f35d885	0.7103351
217	0xbecb29d4	-0.3968035
218	0x3f56d9f7	0.8392634
219	0x3e95103f	0.29113957
220	0x3e22022a	0.15821138
221	0xbdbc8e03	-0.09206774
222	0xbeb1658c	-0.34647787
223	0x3ecbac4a	0.39779884
224	0x3efc9e6e	0.49339622
225	0x3e38e815	0.18057282
226	0xbe4242fc	-0.18970865
227	0x3cff95ac	0.031199299
228	0xbf03692b	-0.5133235
229	0x3e68eff9	0.22747792
230	0x3ee8772c	0.4540342
231	0xbe8b2b70	-0.27181578
232	0xbf306d0d	-0.689164
233	0x3f5b88b9	0.857555
234	0xbe883504	-0.26602948
235	0xbedb3b9a	-0.4281891
236	0x3ea10dc0	0.31455803
237	0xbf0981f0	-0.53713894
238	0x3ed0c927	0.40778467
239	0x3eca5f40	0.39525795
240	0xbecd7903	-0.40131387
241	0x3ebd53d2	0.36978012
242	0x3e1a4c69	0.1506821
243	0x3da6d9de	0.081470236
244	0xbfb11cc0	-1.3836899
245	0xbf4ba378	-0.7954631
246	0xbf4a2ec7	-0.78977627
247	0xbb9b7181	-0.0047437553
248	0xbe6b73c4	-0.2299338
249	0xbee90267	-0.45509645
250	0x3eab50d7	0.33460113
251	0x3ec2718c	0.37977254
252	0xbe10ec85	-0.14152725
253	0x3e18828f	0.14893554
254	0x3e1a782c	0.15084904
255	0x3d99c852	0.07508911

network.0.bias f4 [256]
0	0xbd68654a	-0.05673722
1	0x3e6cdef6	0.23131928
2	0x3e5a0014	0.21289092
3	0x3dc3f50d	0.09568224
4	0x3ed954db	0.42447552
5	0xbde03792	-0.10948099
6	0x3efb889e	0.49127668
7	0xbdc49b50	-0.09599936
8	0x3db3a599	0.087718196
9	0x3e4d4702	0.20046619
10	0x3ead8a75	0.33894697
11	0x3ecf04cd	0.4043335
12	0x3dc2e1c9	0.09515721
13	0xbe445419	-0.19172706
14	0xbed7521e	-0.42054838
15	0x3ea11722	0.3146296
16	0x3e47a86b	0.1949784
17	0x3e8c2ffd	0.27380362
18	0x3e318c4b	0.17338674
19	0x3c80af64	0.015708633
20	0xbe9d6350	-0.30739832
21	0x3ccaa861	0.024738492
22	0xbe421453	-0.18953066
23	0x3e9da290	0.30788088
24	0xbd81f155	-0.063448586
25	0xbe0b4dbc	-0.13603872
26	0xbcffd8a5	-0.031231234
27	0x3de3af55	0.11117426
28	0x3ea9929d	0.3311967
29	0xbe86c90b	-0.2632526
30	0xbd21e5ad	-0.039525677
31	0x3ee984b8	0.4560907
32	0x3eafcf5f	0.343379
33	0x3e0123ec	0.1261136
34	0xbe6c1c22	-0.23057607
35	0x3e1385c0	0.1440649
36	0x3e347e03	0.17626195
37	0x3a7d56c7	0.0009664115
38	0x3c25869c	0.010102894
39	0x3d92417a	0.07141395
40	0x3e04f469	0.1298386
41	0xbda48e9a	-0.080350116
42	0x3dc8d795	0.09806744
43	0xbe8f1474	-0.27945292
44	0x3eb78ea3	0.3585101
45	0xbe3a1882	-0.18173411
46	0xbe8d952a	-0.27652866
47	0x3ed8143e	0.42202944
48	0x3e96a9ef	0.29426524
49	0x3e1eb2bf	0.15497874
50	0x3e2990b7	0.1655911
51	0xbd6ef0db	-0.058335166
52	0x3e8b0ecc	0.27159727
53	0x3eadece0	0.33969784
54	0xbe26c094	-0.162844
55	0x3ec8ee77	0.39244434
56	0x3d8d1e92	0.068905964
57	0xbe33fe4d	-0.17577477
58	0xbe7c62ba	-0.24647036
59	0x3f0768f9	0.5289455
60	0x3ec62e0f	0.38707015
61	0x3e3fa274	0.18714315
62	0x3ea9b8ce	0.33148807
63	0x3e86f5f8	0.26359534
64	0xbe3bc968	-0.18338549
65	0xbe9d16c2	-0.30681425
66	0x3df77fa0	0.120848894
67	0x3e99d38e	0.30044216
68	0x3ea1a706	0.3157274
69	0x3e0b8273	0.13623981
70	0xbee22597	-0.44169304
71	0x3e1f5a73	0.15561847
72	0xbdb3b51f	-0.087747805
73	0xbd657d80	-0.05602789
74	0xbe2db174	-0.16962224
75	0x3d0dd299	0.03462467
76	0x3e9e2ef6	0.30895203
77	0x3eabac38	0.3352983
78	0x3e534d23	0.20634894
79	0xbe80a6a2	-0.2512713
80	0x3e002de6	0.12517509
81	0x3e8a186f	0.26971766
82	0xbe52240e	-0.20521566
83	0xbe890bea	-0.26766902
84	0xbe6a2f75	-0.22869666
85	0x3ec99112	0.39368492
86	0x3f0aabdd	0.5416849
87	0x3e6053f9	0.21907033
88	0x3e347885	0.176241
89	0x3e63ca97	0.2224525
90	0x3eec75ce	0.46183628
91	0xbc984e03	-0.018591886
92	0xbea10c22	-0.3145457
93	0x3ed494b2	0.41519696
94	0x3e7280e0	0.23681974
95	0xbe4c9d51	-0.19981886
96	0xbd9b35b1	-0.075786
97	0x3eb0cbb9	0.34530428
98	0x3eafec27	0.34359857
99	0x3ef6013d	0.4804782
100	0x3cc17a52	0.023617897
101	0xbe996956	-0.29963177
102	0x3e722431	0.23646618
103	0x3f09ec5b	0.53876275
104	0x3d9ae6dd	0.07563565
105	0x3eccc7f8	0.39996314
106	0x3eab540e	0.33462566
107	0x3ef8e244	0.48610127
108	0x3f20fd26	0.62886274
109	0xbd5e27da	-0.054237224
110	0x3f228e91	0.6349879
111	0x3cf393b7	0.029733522
112	0x3d8a0a27	0.06740218
113	0xbe1ff722	-0.15621617
114	0x3e093031	0.1339729
115	0x3d671003	0.056411754
116	0xbe492da4	-0.19646317
117	0x3e5ff924	0.21872383
118	0x3ea6a7ae	0.32549804
119	0x3e13c752	0.14431503
120	0xbdefa848	-0.11702019
121	0x3c8c86f6	0.017154198
122	0x3ec02133	0.3752533
123	0x3d1a2222	0.037630208
124	0x3e7865d9	0.24257602
125	0xbdad25d8	-0.08454484
126	0xbe6b49d5	-0.22977383
127	0xbe33ffe8	-0.17578089
128	0xbe942bf9	-0.28939798
129	0x3f015d99	0.50533444
130	0x3e4b0e03	0.19829564
131	0x3d9bae75	0.076016344
132	0x3e941a4b	0.2892631
133	0xbdaac246	-0.08337836
134	0x3d348316	0.044070326
135	0x3edf82e9	0.43654564
136	0x3d9b8cfe	0.075952515
137	0xbe9ff9be	-0.31245226
138	0xbe83d578	-0.257488
139	0x3e43e104	0.19128805
140	0x3d52a306	0.051425003
141	0x3ec70cc9	0.38876942
142	0x3ecfdb6e	0.405971
143	0xbe02f87e	-0.12790105
144	0xbe0eefbd	-0.1395864
145	0x3ddf5e55	0.10906664
146	0x3f1c121a	0.6096512
147	0xbb972e4f	-0.0046136747
148	0xbe546623	-0.20742087
149	0x3da10921	0.07863069
150	0x3e4fe65d	0.2030272
151	0xbc8e3937	-0.017361267
152	0x3efbd933	0.49189147
153	0xbe7d800a	-0.24755874
154	0x3e4720c2	0.1944609
155	0x3e712015	0.23547395
156	0xbdffeef1	-0.12496746
157	0x3e791f5a	0.24328366
158	0x3e28ebe7	0.1649624
159	0xbe349084	-0.17633253
160	0xbe7aa6ad	-0.24477644
161	0xbea5a089	-0.3234904
162	0x3c93e381	0.018052818
163	0x3df68d15	0.12038628
164	0xbcb2a61f	-0.021807728
165	0xbd9d0952	-0.07667793
166	0xbda71dfb	-0.08160015
167	0xbe29bef1	-0.16576745
168	0x3e23f774	0.16012365
169	0xbe2a96c5	-0.16659077
170	0x3eafdc38	0.343477
171	0xbd14c5c0	-0.0363214
172	0x3f18c9c6	0.5968288
173	0x3ecf8e4c	0.4053825
174	0x3e1a78e4	0.15085179
175	0xbcb4a978	-0.022053465
176	0x3e59d2f2	0.21271876
177	0x3e7c4a49	0.24637713
178	0x3e08bc6a	0.13353124
179	0x3e42adb0	0.19011569
180	0x3d946b6f	0.07247054
181	0xbdefd9c3	-0.117114566
182	0x3e47e3b3	0.19520454
183	0xbe93cbdd	-0.28866473
184	0x3efbc3c6	0.491728
185	0xbe45baec	-0.19309586
186	0x3ed7978a	0.42107803
187	0xbe4dbd6f	-0.20091794
188	0x3e3bb58b	0.18330972
189	0x3e86d754	0.26336157
190	0xbe00b911	-0.12570597
191	0xbdd4dd71	-0.10393799
192	0x3ed124d9	0.40848425
193	0x3e0fd724	0.14046913
194	0x3ec20c37	0.37899944
195	0x3ef0f73f	0.47063634
196	0x3ea67c56	0.32516736
197	0xbd12ec0f	-0.035869654
198	0x3f212558	0.6294761
199	0xbe2f5b4a	-0.17124668
200	0x3e2c61dc	0.16834205
201	0x3e8b7b45	0.27242485
202	0xbe291c88	-0.1651479
203	0xbdc60d12	-0.09670462
204	0x3e84abac	0.25912225
205	0x3ecc557a	0.39908963
206	0xbe114e47	-0.14190017
207	0x3f11a6a7	0.56894916
208	0xbe734c0f	-0.23759483
209	0x3d9019d6	0.07036178
210	0x3ef43551	0.47696927
211	0x3e9ecb87	0.31014654
212	0xbec10e74	-0.3770634
213	0x3d1cdcde	0.038296573
214	0x3b94a3cd	0.004536128
215	0xbea8299e	-0.3284425
216	0x3f0895f5	0.53353816
217	0x3ed67719	0.4188774
218	0x3ed7cf04	0.42150128
219	0x3cd6c7e6	0.026218366
220	0x3dbbc0f0	0.09167659
221	0x3e17497a	0.14774123
222	0xbe23dd43	-0.16002373
223	0x3e812546	0.2522375
224	0x3d16c5d2	0.03680975
225	0x3e71505b	0.2356581
226	0xbca39792	-0.019969735
227	0x3ea393da	0.3194874
228	0x3e803216	0.25038213
229	0x3ea07f05	0.31346908
230	0x3f211116	0.62916696
231	0x3f268cea	0.6505877
232	0xbec59f26	-0.38597983
233	0x3ef63aba	0.4809168
234	0x3ea626b1	0.32451394
235	0x3dc396d5	0.09550253
236	0xbdd98897	-0.106217556
237	0xb94d0f07	-0.00019555922
238	0x3d927ef1	0.071531184
239	0x3edf3a15	0.43599
240	0xbe5d0ae9	-0.21586193
241	0x3cbc594d	0.0229918
242	0x3ea5bca5	0.32370487
243	0x3e32f7b1	0.174773
244	0xbcc77168	-0.024346069
245	0x3ea7d6f7	0.32781193
246	0xbc043025	-0.008068119
247	0xbe991b65	-0.29903713
248	0x3ecf7cf1	0.4052501
249	0x3ea15005	0.31506363
250	0x3e4e4447	0.20143233
251	0x3ee13183	0.43983087
252	0x3de39ae6	0.11113529
253	0xbdc9de9e	-0.09856914
254	0x3e088752	0.1333287
255	0xbdabefda	-0.083953574

network.2.weight f4 [256, 256]
0	0x3d747b5b	0.059687953
1	0xbe53d9ff	-0.20688628
2	0xbdb2bad5	-0.08727042
3	0x3d0f92c8	0.03505209
4	0x3e8439ee	0.25825447
5	0xbe03d44f	-0.12873958
6	0x3d7ac740	0.061225176
7	0x3e2ab2dd	0.16669793
8	0xbd4a488c	-0.049385592
9	0xbd88fc97	-0.06688803
10	0x3d7fdfba	0.06246922
11	0x3db5e81b	0.08882161
12	0x3e12e056	0.1434339
13	0x3d6cef67	0.0578455
14	0xba9e55a4	-0.0012079966
15	0x3e3fa78b	0.18716256
16	0x3df5338d	0.11972723
17	0xbdb3a855	-0.08772341
18	0xbdfe31d5	-0.124118485
19	0x3d924fe3	0.071441434
20	0x3d3b3011	0.045700137
21	0xbd961e4a	-0.07329996
22	0x3e45c328	0.19312727
23	0x3ea45c85	0.32101837
24	0xbe06eb32	-0.13175657
25	0xbe1f2631	-0.15541913
26	0x3d33ea26	0.043924473
27	0x3e86d701	0.2633591
28	0xbdea9046	-0.11453299
29	0xbd39c3df	-0.045352813
30	0x3e0a650f	0.13515113
31	0xbd29e8a3	-0.041481625
32	0xbdedc2b0	-0.11609399
33	0xbc8587ca	-0.0163001
34	0xbdacc56d	-0.084360935
35	0x3ed0458a	0.40678054
36	0xbd0b28f1	-0.03397459
37	0xbcd11dfa	-0.02552699
38	0xbe4284cc	-0.1899597
39	0xbe32546e	-0.1741502
40	0xbc30b823	-0.010786089
41	0x3e877f8d	0.264645
42	0x3dc85d97	0.09783476
43	0xbb990924	-0.004670279
44	0x3d941ea6	0.07232408
45	0x3d0399e0	0.03212917
46	0x3e2e9cd6	0.17052016
47	0x3dfe0f2d	0.12405238
48	0xbde794a7	-0.1130765
49	0xbc798f2c	-0.015231889
50	0x3e4e7f2f	0.20165704
51	0x3e581e16	0.21105227
52	0x3d9e3ae4	0.07726076
53	0xbd837d5d	-0.064203955
54	0x3cdfa749	0.027301447
55	0x3e591cf9	0.21202458
56	0x3e0fcafc	0.14042276
57	0xbdc6a8bf	-0.097001545
58	0xbdf559ca	-0.119800165
59	0x3e82ff67	0.25585482
60	0x3dc9ea8d	0.0985919
61	0xbd688097	-0.056763258
62	0x3cee2976	0.029072504
63	0xbe54ea3b	-0.20792477
64	0x3c809022	0.015693728
65	0x3d734db6	0.059400283
66	0xbe0595b8	-0.13045394
67	0xbd9540f6	-0.07287781
68	0x3e83d823	0.25750837
69	0xbd6bbc63	-0.057552706
70	0xbc5f0633	-0.013612318
71	0xbdab0bb4	-0.083518416
72	0x3e82064c	0.2539543
73	0x3dd1dc06	0.10247044
74	0x3e0c920c	0.13727587
75	0xbc39165e	-0.011296837
76	0x3e7b777a	0.24557295
77	0xbd9d69b6	-0.076861784
78	0x3e843fec	0.2583002
79	0x3dc2fd47	0.09520965
80	0xbe38da7f	-0.180521
81	0xbcd629d2	-0.026142988
82	0x3e61329d	0.21991964
83	0xbd66967d	-0.05629586
84	0xbe2a8a2a	-0.16654268
85	0xbc19eb26	-0.009394443
86	0x3e482c12	0.19548061
87	0x3e3ff5ac	0.1874606
88	0x3dd6f7d6	0.1049649
89	0x3ca56690	0.020190507
90	0x3e0d867b	0.13820831
91	0xbe63d862	-0.22250512
92	0x3d929ed7	0.071592025
93	0x3e029178	0.12750804
94	0x3ebb53cb	0.36587366
95	0x3e43a468	0.19105685
96	0xbe22adb8	-0.15886581
97	0xbd9f9b54	-0.07793298
98	0x3da17827	0.07884245
99	0x3e1a7bea	0.15086332
100	0xbd255462	-0.040363677
101	0xbe0c76ca	-0.1371719
102	0xbbf6a6ae	-0.007527194
103	0x3ca073af	0.019586412
104	0x3e44eeb3	0.19231682
105	0x3e9b11d2	0.30287033
106	0xbb18ef18	-0.002333587
107	0xbd645628	-0.055746228
108	0x3e8445d8	0.25834537
109	0x3c565ffd	0.013084409
110	0x3d6ad155	0.05732854
111	0x3e98582d	0.29754773
112	0x3e334854	0.1750806
113	0xbe242b3f	-0.16032122
114	0xbe0b704c	-0.13617057
115	0x3eabf13a	0.3358248
116	0x3dc5c710	0.09657109
117	0x3d7fa6f3	0.062415075
118	0x3c1adae0	0.009451598
119	0xbd607703	-0.054801
120	0x3c921c7b	0.017835846
121	0x3e737847	0.23776351
122	0x3e1ae689	0.15127005
123	0x3e778c18	0.24174535
124	0x3d5d7ef5	0.054076154
125	0xbdf0df02	-0.11761285
126	0x3e362931	0.17789151
127	0x3e80e129	0.25171784
128	0x3dc8172a	0.09770043
129	0x3c647714	0.013944406
130	0x3da35f15	0.0797712
131	0x3af76ff1	0.0018877966
132	0x3d742af1	0.059611265
133	0xbce70cbc	-0.028204314
134	0x3e516cb4	0.20451623
135	0x3c205b7d	0.0097874375
136	0x3e51006e	0.2041032
137	0x3d46f605	0.048574466
138	0xbd47d0f9	-0.048783276
139	0xbd2e1b3d	-0.042506445
140	0xbb141381	-0.0022594633
141	0xbe6b27e8	-0.22964442
142	0x3d09e13c	0.033662066
143	0x3dde7423	0.10861995
144	0x3dc2e122	0.09515597
145	0x3e465f7a	0.19372359
146	0xbc8d3b35	-0.017240146
147	0xbe11a840	-0.14224339
148	0x3de540bc	0.11193988
149	0x3dcca16b	0.099917255
150	0xbd0cfbd9	-0.03441987
151	0xbd58f45d	-0.052967418
152	0x3e33d8c7	0.17563163
153	0xbe5919cf	-0.21201251
154	0xbd263d4d	-0.040585805
155	0x3e140441	0.14454748
156	0x3de2d1a5	0.11075143
157	0xbdb9e26b	-0.09076389
158	0x3e84d782	0.2594567
159	0x3b5ae75d	0.0033402063
160	0x3d994693	0.07484164
161	0x3e204990	0.15653062
162	0x3d852bbd	0.06502483
163	0x3db826dc	0.08991787
164	0xbdd09fba	-0.101867154
165	0xbd5999db	-0.053125244
166	0x3d311c82	0.043240078
167	0xbc928e76	-0.017890196
168	0x3e28e5ec	0.16493958
169	0xbc8eb744	-0.017421372
170	0x3e62edd3	0.22161035
171	0x3e3bdbdb	0.18345587
172	0x3e01f271	0.1269014
173	0x3e1a6256	0.15076575
174	0x3d894c61	0.06704021
175	0x3ed1ef37	0.4100282
176	0x3ccfd11b	0.025368264
177	0xbd80c46b	-0.06287464
178	0x3ca79db9	0.02046095
179	0xbd94e174	-0.07269564
180	0xbdb28c45	-0.087181605
181	0xbdd7533f	-0.10513925
182	0x3b28cf9b	0.0025758508
183	0xbd9e32a8	-0.07724506
184	0xbd74c720	-0.059760213
185	0x3e1c7957	0.15280662
186	0xbcd95d03	-0.02653361
187	0x3d86c002	0.06579591
188	0xbc72a04d	-0.0148087265
189	0x3cbde577	0.023180706
190	0x3e46b036	0.19403157
191	0x3e7b779d	0.24557348
192	0x3df746f9	0.12074084
193	0x3e50fb7a	0.2040843
194	0xbc4b44fd	-0.012406585
195	0x3de32df3	0.110927485
196	0xbe136d36	-0.1439713
197	0x3e1c7237	0.15277945
198	0x3d37a5c5	0.044835825
199	0x3e02f525	0.12788828
200	0x3db5e94f	0.08882391
201	0xbe14a617	-0.14516483
202	0xbbce930a	-0.0063041495
203	0x3e7ed5ee	0.24886295
204	0xbc3f9509	-0.011693248
205	0x3dca2053	0.098694466
206	0x3d0a160a	0.033712424
207	0x3d53c195	0.051698286
208	0xbd9dc615	-0.07703797
209	0x3d18266a	0.03714601
210	0xbd175aa3	-0.036951672
211	0x3db5debb	0.08880373
212	0xbcfa3b24	-0.030545779
213	0x3a585dc0	0.0008253716
214	0x3e8081de	0.2509908
215	0x3e23e102	0.16003802
216	0x3df2f833	0.118637465
217	0x3e7fcfd9	0.24981631
218	0x3d409326	0.04701533
219	0x3dab38ed	0.08360467
220	0x3dc69eca	0.09698255
221	0x3e967cee	0.2939219
222	0x3ded068c	0.11573514
223	0x3e946a52	0.28987366
224	0x3e72a643	0.23696236
225	0x3e506231	0.20349957
226	0xbe13f21a	-0.14447823
227	0xbd5a1d31	-0.053250495
228	0xbd9b441d	-0.07581351
229	0x3ca15db6	0.019698005
230	0x3d828ff2	0.06375112
231	0x3da2455e	0.07923387
232	0x3d691fc1	0.05691505
233	0x3e51c603	0.20485692
234	0x3d1ea539	0.038731787
235	0x3e364428	0.17799437
236	0xbc589f90	-0.013221636
237	0xba46e0d1	-0.0007586601
238	0xbe4d5636	-0.20052418
239	0x3e876718	0.26445842
240	0xbe5817b0	-0.21102786
241	0x3e843d78	0.25828147
242	0xbd89f9bc	-0.06737086
243	0x3d921fa1	0.07134939
244	0xbdf2ac56	-0.11849277
245	0xbc4ec157	-0.012619338
246	0x3d79b550	0.06096393
247	0x3d69ff31	0.057128135
248	0x3d7d6b3a	0.061869837
249	0xbd8c23a4	-0.068427354
250	0xbd39f1fa	-0.045396782
251	0x3decaa3b	0.115559064
252	0xbe2e9afc	-0.1705131
253	0x3e14d1b0	0.14533114
254	0xbd63ac3c	-0.055584177
255	0xbbb45500	-0.005503297

network.2.bias f4 [256]
0	0x3d4eadf0	0.05045885
1	0x3d0ed4ef	0.034871038
2	0xbdaf7e39	-0.08568997
3	0x3d3bab4e	0.045817666
4	0xbca33759	-0.019923853
5	0x3e277f10	0.16357064
6	0x3d82b466	0.063820645
7	0x3dd573fb	0.10422512
8	0x3c5fc849	0.013658592
9	0x3e44b44a	0.192094
10	0x3bf2c7b0	0.0074090585
11	0xbd41a1af	-0.047273334
12	0xbdb8861c	-0.09009954
13	0x3db06b81	0.08614255
14	0xbc939714	-0.018016376
15	0x3dee1a1f	0.11626076
16	0xbe1df0db	-0.1542391
17	0x3d85b9b8	0.06529564
18	0xbdb867eb	-0.09004196
19	0xbc1b7f15	-0.009490748
20	0x3dc9379f	0.09825062
21	0x3e017383	0.1264172
22	0x3da8c1f9	0.08240122
23	0xbcbfa9bc	-0.023396365
24	0x3e1ea2e5	0.15491827
25	0x3dc50904	0.0962086
26	0x3d57d5bc	0.052694067
27	0x3df7e55d	0.121042944
28	0x3df3ae6e	0.11898504
29	0x3e9a7703	0.30168924
30	0x3def9100	0.116975784
31	0x3daaf6b3	0.083478354
32	0x3dbefed3	0.093259476
33	0x3bd82745	0.006596478
34	0xbd91acb3	-0.07113018
35	0x3ac0be27	0.0014705107
36	0x3ddf427d	0.109013535
37	0x3d77c44c	0.060489938
38	0x3d7c4dee	0.061597757
39	0x3d23e284	0.040010944
40	0x3d97af07	0.07406431
41	0xbdaacc5c	-0.0833976
42	0xbcaa1033	-0.020759678
43	0x3dbbe01a	0.09173603
44	0x3e3a271b	0.1817898
45	0x3c1c2eaa	0.00953261
46	0x3dc71bb7	0.09722083
47	0xba2c4d69	-0.00065728143
48	0xbe4fa28f	-0.20276855
49	0x3cd18169	0.025574403
50	0xbb04e73f	-0.0020279435
51	0x3d553755	0.05205472
52	0x3e2f9677	0.17147242
53	0x3d5257b7	0.051353183
54	0x3d39b1ec	0.045335695
55	0x3e0339a9	0.12814964
56	0x3daa2968	0.08308679
57	0x3bfb6e80	0.0076730847
58	0x3e17d64c	0.14827842
59	0xbd5f606d	-0.05453532
60	0xbe0f19d2	-0.13974693
61	0x3d615f05	0.05502226
62	0x3e04ead9	0.12980212
63	0xbe63f99c	-0.22263187
64	0x3dac7920	0.0842154
65	0xbd3fc31b	-0.046816926
66	0x3e2fc978	0.17166698
67	0x3dd9287a	0.106034234
68	0x3e6776dd	0.22603936
69	0x3db5ea1d	0.08882544
70	0xbe21533c	-0.15754408
71	0x3e36b165	0.17841108
72	0xbd373965	-0.04473247
73	0xbc43d9b4	-0.01195376
74	0x3d86b40e	0.065773115
75	0x3e200e43	0.1563044
76	0x3e39a2de	0.18128535
77	0x3d7bb96b	0.061456125
78	0xbda9d463	-0.08292463
79	0xbd070ac1	-0.03296924
80	0x3e2381de	0.15967509
81	0x3c8290e0	0.015938222
82	0x3dab2b08	0.08357817
83	0xbcc514e8	-0.02405782
84	0x3e148981	0.14505579
85	0x3dfd45e8	0.12366849
86	0x3da83a94	0.08214298
87	0x3e4bb7a0	0.19894266
88	0xbe115584	-0.14192778
89	0x3de5fb9f	0.112296335
90	0xbc2824b3	-0.010262656
91	0x3dabe5ed	0.08393464
92	0xbd63b158	-0.05558905
93	0x3e1b8893	0.15188818
94	0x3dccfcf4	0.100091845
95	0x3ce11426	0.027475428
96	0xbdfa07c0	-0.122085094
97	0x39788515	0.000237007
98	0x3e21fc81	0.15818979
99	0x3e36d06d	0.17852946
100	0x3da8ad6c	0.082362026
101	0xbcca656d	-0.024706567
102	0xbe2d8297	-0.16944347
103	0xbdd07434	-0.10178414
104	0x3ca68af5	0.020329932
105	0x3e4b50ed	0.1985509
106	0x3deb8a2f	0.11500966
107	0x3b535e9e	0.003225244
108	0xbc6e074d	-0.014528108
109	0xbdc5f534	-0.096659094
110	0xbdc0fc83	-0.09423163
111	0x3ddccc8a	0.107812
112	0x3c97a141	0.018509509
113	0x3e31990d	0.1734354
114	0x3d38f8a3	0.045158993
115	0xbc77662a	-0.015100041
116	0x3d6d3e74	0.057920888
117	0x3d6fbafe	0.05852794
118	0x3e839764	0.2570144
119	0x3e1954e7	0.14973794
120	0x3d72ee7f	0.05930948
121	0x3d86d5b3	0.06583729
122	0xbcf06361	-0.029344263
123	0x3d940dc2	0.072291866
124	0x3cc8769a	0.024470616
125	0xbc0437b3	-0.00806992
126	0xbc8061b6	-0.015671592
127	0xbd95ba9b	-0.07310983
128	0x3d6de936	0.058083735
129	0x3c920ed3	0.017829334
130	0x3e21a8c9	0.15787043
131	0x3cfd530b	0.030923387
132	0x3db33d01	0.0875187
133	0x3d61e2e2	0.055148013
134	0x3d1368df	0.035988685
135	0x3c781486	0.015141612
136	0xbc096ea1	-0.008388192
137	0xbdc57379	-0.09641165
138	0x3dc6ae97	0.09701269
139	0xbe2e39b9	-0.17014207
140	0xbd2f38d8	-0.04277882
141	0xbdd375f2	-0.10325231
142	0x3dc1b0b3	0.09457531
143	0xbe095808	-0.13412488
144	0x3c6b237a	0.01435172
145	0xbd822ae8	-0.0635584
146	0xbce5a457	-0.028032465
147	0xbdfb3abd	-0.12267063
148	0xbcdd33f1	-0.027002307
149	0xbddcd332	-0.1078247
150	0x3c36d3d7	0.011158905
151	0x3d9b33e9	0.075782605
152	0x3df3f6c6	0.11912303
153	0x3cada319	0.021195935
154	0x3db38238	0.08765072
155	0x3d27e08f	0.04098564
156	0x3e27dfce	0.16393968
157	0x3dcb9fa7	0.09942561
158	0x3d8e1586	0.06937699
159	0xbdf9e102	-0.1220112
160	0xbd37af80	-0.044845104
161	0xbd99c36f	-0.07507979
162	0x3d894270	0.06702125
163	0xbea7e7b5	-0.32793966
164	0x3cafa364	0.021440215
165	0x3cfb75c2	0.0306958
166	0xbdff7367	-0.12473183
167	0x3cf33ee6	0.029693078
168	0x3d8a23da	0.067451194
169	0x3c1c6372	0.009545194
170	0xbc816961	-0.015797319
171	0x3e803a14	0.2504431
172	0x3dc8f0cc	0.09811553
173	0x3e2afba6	0.16697559
174	0xbc86b8fb	-0.016445627
175	0xbc4f7e9e	-0.012664465
176	0x3dd3e26c	0.10345921
177	0x3e02b49b	0.12764208
178	0xbca328fd	-0.019917006
179	0xbda6ce4e	-0.08144818
180	0x3e2f12da	0.17097035
181	0x3dd2baaa	0.102895096
182	0x3d38dd6f	0.04513305
183	0xbdb92c75	-0.09041683
184	0x3dc1c3ad	0.0946115
185	0x3cf62696	0.030047696
186	0x3ce3eb7a	0.027822245
187	0x3d775404	0.060382858
188	0x3d8bb2b7	0.068211965
189	0xbce5667e	-0.028002974
190	0x3cb495ad	0.022044027
191	0xbdc18c29	-0.094505616
192	0x3dede1c1	0.11615325
193	0x3b3807d0	0.0028080828
194	0x3e51ed5f	0.20500706
195	0x3e460a51	0.19339873
196	0x3cb64288	0.022248521
197	0xbb86322d	-0.004095337
198	0x3daf2ee3	0.08553865
199	0xbbdf29fd	-0.0068104253
200	0x3d80585c	0.06266853
201	0x3e49db96	0.19712672
202	0x3e5d1a30	0.21592021
203	0x3c8c5eef	0.017135112
204	0x3df24855	0.118302025
205	0x3e4b408d	0.19848843
206	0x3dabfd43	0.08397915
207	0x3dc293a2	0.09500815
208	0xbd35e22b	-0.044405144
209	0x3dc4c698	0.09608191
210	0x3d4fed0c	0.050763175
211	0x3df8f686	0.121563956
212	0xbd569f9a	-0.0523983
213	0x3d7ed2f0	0.062212884
214	0x3e31c264	0.1735931
215	0x3a39c90e	0.00070871494
216	0x3de15008	0.11001593
217	0x3d88d9c9	0.06682164
218	0x3da24966	0.07924156
219	0xbc8e4e9f	-0.017371474
220	0x3d819582	0.063273445
221	0x3d9faedd	0.077970244
222	0x3a135f27	0.0005621784
223	0xbe07930a	-0.13239685
224	0xbbbfaca1	-0.0058494364
225	0x3deff4ef	0.11716639
226	0xbbec36c5	-0.0072086775
227	0x3d781790	0.060569346
228	0x3e357199	0.17719115
229	0xbd4f9a88	-0.05068448
230	0x3d57f6f6	0.052725755
231	0x3dfb8bf2	0.12282552
232	0x3da0ee9f	0.07858013
233	0x3e32ba26	0.17453822
234	0x3e2af3ed	0.16694613
235	0x3dfd0320	0.12354112
236	0xbc89d0e3	-0.016823238
237	0x3dc7e128	0.09759742
238	0xbd46dc4b	-0.04854993
239	0xbda3c7a7	-0.07997065
240	0x3e0ae800	0.13565063
241	0xbcaab33b	-0.020837417
242	0xbd49b600	-0.049245834
243	0x3d85eafc	0.0653896
244	0x3dbff8d6	0.093736336
245	0xbe2117d6	-0.15731749
246	0x3d46b850	0.048515618
247	0x3d8eec93	0.06978717
248	0x3debedf7	0.115199976
249	0xbdbe0183	-0.09277632
250	0x3d4033ae	0.046924286
251	0x3c4a57e4	0.012350056
252	0xbb4c0da2	-0.0031136055
253	0xbdbfb9a1	-0.09361578
254	0xbdbab857	-0.09117191
255	0xbe06010a	-0.13086334

network.4.weight f4 [256, 256]
0	0x3d1b5d5a	0.037930824
1	0xbce51f9f	-0.02796918
2	0xbee5d103	-0.44886026
3	0xbf2d453f	-0.67683786
4	0xbf6d4566	-0.9268402
5	0xbee84d56	-0.45371503
6	0xbe945778	-0.28972983
7	0x3e66df5f	0.22546147
8	0x3d53d346	0.051715158
9	0x3e0c4833	0.13699417
10	0xbf330509	-0.6992956
11	0x3dedb435	0.116066374
12	0x3c1cfe26	0.009582078
13	0x3d0e1af0	0.03469366
14	0xbdb58505	-0.08863262
15	0xbd2be59a	-0.041967012
16	0xbe33f844	-0.17575175
17	0xbc7d7831	-0.01547055
18	0x3d580677	0.05274054
19	0x3da4b2dd	0.08041928
20	0xbe88f280	-0.26747513
21	0x3dc353b1	0.09537447
22	0x3c582177	0.013191572
23	0xbed45a35	-0.41475073
24	0xbef38e83	-0.47569665
25	0xbe18b5e1	-0.14913131
26	0xbb645c9d	-0.003484524
27	0xbe4b2cbb	-0.19841282
28	0x3e2cc949	0.16873659
29	0x3d3f484a	0.0466998
30	0xbe05bac0	-0.1305952
31	0xbf18493c	-0.59486747
32	0xbf2d28c5	-0.67640334
33	0xbeea792f	-0.4579558
34	0xbdbd1a4e	-0.09233533
35	0x3d2f0cd2	0.042736836
36	0xbf2cd789	-0.6751638
37	0xbe09e322	-0.1346555
38	0xbf1b223a	-0.605991
39	0xbb8327e4	-0.004002558
40	0xbe8bb995	-0.27290025
41	0xbd494a4b	-0.049143117
42	0x3b2ac90d	0.0026059777
43	0x3deae213	0.114689015
44	0x3e427cd2	0.18992928
45	0x3d1bc351	0.038028065
46	0xbf881f9e	-1.0634649
47	0x3e0c3cf0	0.13695121
48	0x3d8becbe	0.06832264
49	0xbf540c43	-0.8283121
50	0x3d8e950f	0.069620244
51	0xbf1e6e9e	-0.6188754
52	0xbc1a0311	-0.009400145
53	0x3d55fac6	0.05224111
54	0xbaa5f7a2	-0.0012662301
55	0x3d9ae6f0	0.07563579
56	0x3dd16836	0.10224955
57	0x3d512d69	0.051068697
58	0xbef7c466	-0.48392028
59	0x3eb355dd	0.35026446
60	0x3d5ae8b6	0.053444587
61	0xbd56637e	-0.052340977
62	0xbdcf0f9c	-0.10110399
63	0x3e02fe9f	0.12792443
64	0x3d23c67a	0.039984204
65	0xbe1238d8	-0.14279497
66	0xbefa11ed	-0.488418
67	0x3dc21828	0.09477264
68	0x3db71894	0.08940235
69	0xbdae54d0	-0.085122705
70	0x3e6e9fae	0.233031
71	0xbee3f242	-0.44520766
72	0xbf1d84bf	-0.6153068
73	0x3db14f02	0.08657648
74	0xbc8b75d7	-0.017023964
75	0xbcf9351d	-0.030420834
76	0xbee2f550	-0.44327784
77	0x3e5784f9	0.21046819
78	0xbf4880c7	-0.783215
79	0x3d10eaf9	0.035380337
80	0x3e5d3141	0.2160082
81	0x3df5ec93	0.120080136
82	0x3d50abd8	0.050945133
83	0x3d7fe7b5	0.062476832
84	0xbec4862b	-0.38383612
85	0xbc456d87	-0.012050039
86	0xbd508f90	-0.050918162
87	0xbf2b054d	-0.66804963
88	0xbc468de7	-0.012118793
89	0xbf3791d4	-0.7170689
90	0xbd4ed0d2	-0.050492115
91	0x3d01c26a	0.03167955
92	0x3bb81f24	0.0056189466
93	0xbdba37b1	-0.090926535
94	0x3e646285	0.22303207
95	0xbf601d14	-0.8754437
96	0x3ec9e694	0.3943373
97	0x3b96d4e6	0.004603016
98	0x3d17ea61	0.037088756
99	0xbdcf1eaa	-0.101132706
100	0xba866860	-0.0010254495
101	0x3ee8b1b5	0.4544808
102	0x3e87b6d1	0.26506665
103	0x3e406002	0.18786624
104	0x3db8d1b8	0.09024376
105	0x3db325e4	0.087474614
106	0x3d8ff1bb	0.07028528
107	0xbd3c9408	-0.04603961
108	0xbf9e5650	-1.237009
109	0x3d2d1652	0.042257614
110	0x3dae384a	0.0850683
111	0x3db3d72f	0.087812774
112	0xbe8b1d15	-0.27170625
113	0xbf625d90	-0.88424015
114	0x3d9c8970	0.076434016
115	0xbd64bfe3	-0.05584706
116	0xbb00ab13	-0.0019633218
117	0xbe915e28	-0.28392148
118	0xbc25f1c8	-0.010128446
119	0xbeefaafa	-0.46810132
120	0x3e04c944	0.12967402
121	0xbb3606d6	-0.002777507
122	0x3cc2ec45	0.023794303
123	0xbe9c6a2f	-0.30549762
124	0xbefba832	-0.4915176
125	0x3e649976	0.22324166
126	0x3de78c15	0.113060154
127	0xbecbdf96	-0.3981902
128	0x3df7b641	0.12095309
129	0x3e376aaf	0.1791179
130	0xbf29d8da	-0.66346514
131	0x3cfa0061	0.030517759
132	0xbf2a7e63	-0.665991
133	0xbe083568	-0.13301623
134	0x3d38e1df	0.045137282
135	0x3d0e7e7f	0.034788605
136	0x3d9f5670	0.077801585
137	0x3df94741	0.12171794
138	0x3dc7b357	0.09751003
139	0x3e1a500a	0.15069595
140	0x3e3b0e6e	0.18267223
141	0x3c97c7a5	0.018527815
142	0xbd8dfb8d	-0.06932745
143	0x3eebdc3d	0.46066466
144	0xbf380600	-0.71884155
145	0x3db545a4	0.088511735
146	0xbcb1e871	-0.021717282
147	0x3c83ea58	0.016102955
148	0x3d743d7e	0.059628956
149	0x3dc3bae3	0.0955713
150	0x3e38e7e0	0.18057203
151	0x3dabf12a	0.08395608
152	0xbf04e41c	-0.5191057
153	0x3cb224cf	0.021746067
154	0xbd0e0d9f	-0.03468096
155	0xbb8a53f3	-0.0042214333
156	0xbea1dceb	-0.3161386
157	0xbd381ddd	-0.044950355
158	0x3df006fe	0.11720084
159	0x3c90afe9	0.017662005
160	0x3d60ce8d	0.054884482
161	0x3dcc7908	0.099840224
162	0xbaa78321	-0.0012780168
163	0xbf761ddf	-0.9613933
164	0x3d8528d9	0.06501932
165	0xbfb2dadc	-1.397304
166	0xbf47e6e0	-0.7808666
167	0xbe29d778	-0.16586101
168	0xbf3944da	-0.72370684
169	0xbf609208	-0.87722826
170	0x3d3c229a	0.045931436
171	0x3e5eb0ac	0.21747082
172	0xbf995dc9	-1.1981746
173	0x3b7b50ba	0.0038347677
174	0x3b655e51	0.0034998844
175	0xbeaf81b2	-0.34278637
176	0xb8a5ccde	-7.9059726e-05
177	0x3d5dc535	0.05414315
178	0xbdfeb132	-0.12436141
179	0x3d93376f	0.071883075
180	0x3e3c9ac8	0.1841842
181	0xbe65ad8c	-0.22429484
182	0x3e37ec29	0.17961182
183	0xbd2aee1f	-0.041730996
184	0xbcc6e3a0	-0.024278462
185	0x3bdc21d1	0.0067178984
186	0xbee2e7ea	-0.4431756
187	0xbe90c4e7	-0.28275225
188	0x3db4fcaf	0.08837258
189	0xbf3df355	-0.7419942
190	0x3e9e7785	0.3095056
191	0x3db71254	0.08939043
192	0xbe2b490e	-0.16727087
193	0xbf3b337b	-0.7312543
194	0x3ebc8b66	0.36825103
195	0x3d83fd80	0.06444836
196	0x3da17d9e	0.07885288
197	0xbf0d869d	-0.5528353
198	0x3dc852dd	0.0978143
199	0x3c226130	0.009910867
200	0xbc0581db	-0.008148636
201	0x3e5feab8	0.21866882
202	0x3e07ecc5	0.13273914
203	0xbf4f9f2c	-0.8110225
204	0x3de0e8e2	0.10981919
205	0xbf01f7b5	-0.50768596
206	0xbf05877e	-0.5215987
207	0x3d177636	0.03697797
208	0x3da4006f	0.08007895
209	0xbf01bd69	-0.5067964
210	0x3e008cfb	0.1255378
211	0xbc0f418e	-0.008743657
212	0xbd44dad0	-0.04806024
213	0xbf3e06b7	-0.74228996
214	0xbeab798b	-0.33491167
215	0xbed0bfe3	-0.40771398
216	0xbf91f978	-1.1404257
217	0x3c540274	0.012940038
218	0x3e85e0c8	0.26148057
219	0x3e2f9ff4	0.17150861
220	0xbdb93814	-0.09043899
221	0x3c7ecf26	0.015552318
222	0xbc29da2e	-0.0103669595
223	0x3db3b5c4	0.087749034
224	0x3d3ee3b2	0.046603866
225	0xbee3fe1b	-0.44529805
226	0x3e34c1e6	0.17652091
227	0x3d4b9ef0	0.04971212
228	0xbca48354	-0.020082153
229	0x3d851c51	0.064995416
230	0x3e9d380d	0.30706826
231	0x3db4081c	0.08790609
232	0xbf55914c	-0.8342483
233	0x3ca00d3f	0.019537566
234	0x3db90573	0.090342425
235	0x3d609e1f	0.054838296
236	0x3d7efa01	0.06225014
237	0xbebbccdd	-0.36679736
238	0xbe22f348	-0.15913117
239	0x3e29dfc1	0.16589262
240	0xbe84fef6	-0.2597577
241	0x3ccaea51	0.024769934
242	0x3e2a11ea	0.16608396
243	0xbe24071f	-0.16018341
244	0xbf5ed4cb	-0.87043446
245	0xbf4bbfd7	-0.795896
246	0xbf91335c	-1.1343799
247	0x3d33dd7f	0.043912407
248	0x3c2c0ff0	0.010501847
249	0x3e187977	0.14890085
250	0x3de0204f	0.109436624
251	0xbc65b0f4	-0.01401924
252	0x3d2863ca	0.04111079
253	0xbe92a902	-0.28644568
254	0xbf094e01	-0.5363465
255	0x3dd4a54d	0.10383091

network.4.bias f4 [256]
0	0x3cac9494	0.021066941
1	0x3db26c8c	0.0871211
2	0x3d449a76	0.047998868
3	0x3dbe053b	0.092783414
4	0xbcb10342	-0.021607999
5	0x3d27fd6f	0.041013177
6	0x3e01f671	0.12691666
7	0xbc1f4ac5	-0.009722416
8	0x3d4212d1	0.047381226
9	0x3ccaa2fc	0.02473592
10	0x3cc48ce1	0.023992958
11	0x3dcac417	0.099006824
12	0x3dcdf06d	0.10055623
13	0x3d89fd25	0.067377366
14	0x3ddd64fa	0.108102754
15	0x3d9975ef	0.07493197
16	0x3d3b9c22	0.045803197
17	0x3ca7d959	0.020489382
18	0xbb5cb17b	-0.0033675123
19	0x3d4a9c45	0.049465436
20	0xbc3e163f	-0.011601984
21	0x3d35a1c8	0.04434374
22	0x3d789125	0.060685296
23	0x3d8cde96	0.068783924
24	0xbd609079	-0.05482528
25	0x3dc16ab0	0.09444177
26	0x3d32ee18	0.043684095
27	0x3db58f64	0.0886524
28	0x3c40acb4	0.011759926
29	0x3e1a7108	0.1508218
30	0x3dfceed8	0.12350243
31	0x3d0568aa	0.03257052
32	0x3d56a69a	0.052404977
33	0xbcb21b74	-0.021741606
34	0x3db18a8d	0.086690046
35	0x3cdc414a	0.026886601
36	0xbd4a078d	-0.049323607
37	0x3da94f4b	0.08267077
38	0x3db58895	0.088639416
39	0x3e14d6fa	0.14535132
40	0x3bf43a3b	0.0074532307
41	0x3c8e6c82	0.017385725
42	0x3d2ffa4a	0.042963304
43	0x3c4def29	0.012569227
44	0x3dce3181	0.10068036
45	0xbd1f8801	-0.038948063
46	0x3aa8f01e	0.0012888943
47	0x3de3256b	0.11091121
48	0x3cb60ee1	0.022223892
49	0x3d8911c7	0.06692844
50	0x3c4dcfcc	0.01256175
51	0xbc335cef	-0.01094745
52	0x3d8975be	0.06711911
53	0x3dc84250	0.09778273
54	0x3d299ba4	0.041408196
55	0xbc58f243	-0.013241353
56	0xb9e8dec7	-0.0004441647
57	0xbd1af38b	-0.037829917
58	0x3d9b60b1	0.07586802
59	0xbbfb7d03	-0.0076748147
60	0x3e9888a5	0.29791752
61	0x3d355b36	0.04427644
62	0x3cc5defc	0.024154179
63	0x3c332dac	0.010936182
64	0x3e390512	0.1806834
65	0x3d788e7b	0.060682755
66	0x3caa44bb	0.020784726
67	0x3d7c8ace	0.061655812
68	0xbca44f51	-0.020057352
69	0x3dc6db2a	0.09709771
70	0xbcb2d775	-0.021831254
71	0xbb99f15a	-0.004697961
72	0x3d05b650	0.03264457
73	0x3e4bc07b	0.19897644
74	0x3d8ba9f2	0.06819524
75	0x3d126ad3	0.035746407
76	0xbd40d40e	-0.04707723
77	0xbc188ba7	-0.009310639
78	0x3d24b899	0.04021511
79	0x3ca33d84	0.019926794
80	0x3bd17551	0.006392159
81	0x3d1bc3eb	0.03802864
82	0x3e0ef33a	0.13959971
83	0xbd187854	-0.03722413
84	0x3cc174a4	0.023615189
85	0x3cf080ac	0.02935823
86	0x3d8ca42c	0.06867251
87	0x3dd5fd9b	0.10448762
88	0x3da8ffa2	0.08251883
89	0x3dbbcdb9	0.09170098
90	0x3d8820d0	0.066468835
91	0x3c9d5e3e	0.019209977
92	0xbc82770f	-0.015925912
93	0x3dd4eeb2	0.1039709
94	0x3da4584d	0.080246545
95	0xbd053127	-0.03251758
96	0xbbd11dcf	-0.0063817273
97	0x3cb4333c	0.021997087
98	0x3dde5a83	0.108571075
99	0x3db889c9	0.090106554
100	0x3cdc997e	0.02692866
101	0x3d8b5eb8	0.068051755
102	0xbc2ecfd1	-0.0106696645
103	0xbccae53e	-0.024767514
104	0x3d942487	0.072335295
105	0xbdc4e4fa	-0.09613986
106	0x3cb69606	0.022288334
107	0x3dfb3bd3	0.1226727
108	0x3de127a0	0.10993886
109	0x3db11031	0.086456664
110	0x3df56485	0.11982063
111	0xbcf05cc4	-0.02934111
112	0x3d7a279d	0.061072934
113	0x3cb213f4	0.02173803
114	0x3d4801ea	0.04882995
115	0x3d7f45a3	0.06232227
116	0x3dae2066	0.08502273
117	0x3dd54808	0.104141295
118	0x3d40e78b	0.047095817
119	0x3c87a366	0.016557407
120	0x3ded50c0	0.115876675
121	0xbce36800	-0.027759552
122	0x3c8eca8d	0.017430568
123	0x3dbb3cda	0.09142466
124	0x3d267949	0.04064301
125	0xbd00cf18	-0.0314475
126	0xbd19be25	-0.03753485
127	0x3d3524bc	0.044224486
128	0xbcd567fa	-0.026050556
129	0x3dc79a70	0.097462535
130	0xbcbdfe1c	-0.023192458
131	0xbd8fd949	-0.07023866
132	0xbd10121f	-0.03517353
133	0x3dcc83bc	0.09986064
134	0x3cab36a1	0.020900073
135	0xbbd93742	-0.0066289017
136	0x3cfa963a	0.030589212
137	0x39815c83	0.00024673724
138	0x3c945245	0.018105635
139	0x3c200b72	0.009768354
140	0xbd5ec674	-0.05438848
141	0x3e1341e7	0.14380608
142	0xbc3b6b43	-0.011439147
143	0x3e15d6bd	0.14632697
144	0x3e16bd61	0.1472068
145	0x3d498890	0.0492025
146	0xbc59d26e	-0.013294799
147	0x3c9e3e36	0.019316774
148	0xbbbaede1	-0.005704627
149	0xbd604b3b	-0.054759245
150	0x3ddd94c7	0.10819393
151	0x3deef9de	0.11668752
152	0x3d53bf3f	0.05169606
153	0xbbf14d78	-0.0073639713
154	0x3d27ffbb	0.041015368
155	0xbd5c148e	-0.05373054
156	0x3d134d56	0.035962425
157	0x3de3eee6	0.11129551
158	0xbd48f865	-0.049065012
159	0x3ca09fa1	0.019607367
160	0x3db4a013	0.08819594
161	0x3e1e2955	0.15445454
162	0xbbfab244	-0.0076506454
163	0x3cf17ab5	0.029477457
164	0x3d4ce56f	0.050023492
165	0x3e0a41b8	0.13501632
166	0x3da9af74	0.08285418
167	0x3ddb351c	0.10703489
168	0x3d652f0f	0.05595308
169	0x3dcf21b0	0.10113847
170	0xbc9b5f05	-0.018966207
171	0x3d4b4793	0.049628805
172	0x3cb1bf33	0.021697616
173	0xbde4f54b	-0.111795984
174	0x3d372543	0.04471327
175	0x3d14d11d	0.03633224
176	0xbb32dae7	-0.002729112
177	0xbdb621e9	-0.088931866
178	0x3d635acc	0.055506513
179	0x3ca800fc	0.020508282
180	0x3e2bb482	0.16768077
181	0x3ce348ef	0.027744738
182	0x3d00f87d	0.031486977
183	0x3c4dbbd5	0.01255699
184	0xbcf82e4c	-0.030295514
185	0x3d3c8cdd	0.046032775
186	0x3d9eff63	0.07763555
187	0xbca6faac	-0.020383202
188	0x3cbbbc36	0.022916894
189	0x3d82bee5	0.063840665
190	0xbcadfec3	-0.021239644
191	0xbd706671	-0.058691446
192	0xbd35492d	-0.04425924
193	0x3d0dcc73	0.034618806
194	0x3c109663	0.0088249175
195	0x3df1bf7f	0.11804103
196	0x3cb6c150	0.022308975
197	0x3db649b9	0.0890078
198	0xbc798c33	-0.01523118
199	0x3d18e11d	0.03732406
200	0xbc07d61a	-0.008290792
201	0x3dd44430	0.10364568
202	0x3c53bfd1	0.012924151
203	0x3c6bbf83	0.014388922
204	0xbd9debd1	-0.07710994
205	0x3d6c43d7	0.057681885
206	0x3e539136	0.20660862
207	0x3c837209	0.016045587
208	0x3cd8682c	0.02641686
209	0x3dbf2a13	0.09334197
210	0xbbdc8c02	-0.0067305574
211	0x3dfa75ff	0.12229537
212	0xbca290e5	-0.019844482
213	0x3d74b770	0.059745252
214	0x3c57f972	0.013182031
215	0x3dc2590b	0.0948964
216	0x3dba730a	0.09103973
217	0x3c6dbc6f	0.014510258
218	0x3dd6cfe1	0.104888685
219	0x3da2f708	0.07957274
220	0xbd69b6f9	-0.057059262
221	0xbd22d3fb	-0.03975294
222	0x3e0e46db	0.13894217
223	0xb9e74c80	-0.0004411675
224	0xbd892109	-0.06695754
225	0xbc000980	-0.007814765
226	0x3dc9f893	0.09861865
227	0x3cdbe2a9	0.026841478
228	0x3e1b2cb6	0.15153775
229	0xbc1c1268	-0.009525873
230	0xbb80b3f5	-0.0039277025
231	0x3d928ec7	0.07156139
232	0x3d8f24ec	0.06989464
233	0x3d674f0f	0.05647188
234	0x3d545f5d	0.051848758
235	0x3ceef020	0.029167235
236	0xbc36b312	-0.011151092
237	0x3dd5a02e	0.104309425
238	0x3e0a2eb3	0.13494377
239	0xbca4e792	-0.020129953
240	0x3d80a28c	0.06281003
241	0xbcdb255e	-0.026751217
242	0x3c75951b	0.014989163
243	0x3c83f6fd	0.016108984
244	0xbe05d116	-0.13068041
245	0x3d7e0bab	0.062022846
246	0x3d86c8bf	0.06581258
247	0x3d8f3cff	0.06994056
248	0xbc24ead7	-0.010065756
249	0x3d68e576	0.056859456
250	0xbcc41ae1	-0.023938598
251	0xbc24fc76	-0.010069957
252	0xbc07cf74	-0.008289207
253	0x3c815e98	0.015792176
254	0xbd86a356	-0.065741226
255	0xbd703bff	-0.058650967

network.6.weight f4 [4, 256]
0	0xbed870cc	-0.42273557
1	0x3f1a45dd	0.6026285
2	0xbed537e5	-0.41644207
3	0xbe73d5b2	-0.23811987
4	0x3f221a7c	0.6332166
5	0x3f0f1a8c	0.5589988
6	0xbe7d716b	-0.24750297
7	0xbe40c2f0	-0.18824363
8	0xbf005df4	-0.5014336
9	0xbea6a3c9	-0.32546833
10	0xbeda6d5d	-0.42661563
11	0x3f390a47	0.72281307
12	0xbe6139fd	-0.21994777
13	0xbea73151	-0.32654813
14	0xbeefabdd	-0.4681081
15	0x3a252de2	0.00063010876
16	0xbefdcd23	-0.4957057
17	0xbe954ca9	-0.2916005
18	0xbf1756d1	-0.59116846
19	0xbeac5ca5	-0.33664432
20	0xbe517aad	-0.20456953
21	0x3f08142f	0.531558
22	0xbed88e80	-0.4229622
23	0x3e44b92c	0.19211262
24	0x3ed3ddf2	0.41380268
25	0xbe8d2d57	-0.27573654
26	0xbd9b71e3	-0.075900815
27	0x3e9c167f	0.30485913
28	0x3e27c6a2	0.16384366
29	0x3e95a4f6	0.29227418
30	0xbe6a9f1c	-0.22912258
31	0x3ef1295e	0.47101873
32	0xbebd7f97	-0.37011406
33	0x3e6982f3	0.2280386
34	0x3f991046	1.1958091
35	0xbf15b9b3	-0.5848648
36	0xbec43694	-0.3832289
37	0xbe96ec47	-0.2947714
38	0x3e255b7a	0.16148177
39	0x3f1e9d02	0.61958325
40	0xbe96d2e4	-0.29457772
41	0x3e18cf2d	0.14922781
42	0x3e1ef392	0.15522602
43	0x3f2f2675	0.68418056
44	0x3d695293	0.056963515
45	0xbeb01621	-0.34391883
46	0x3c1a69e9	0.009424665
47	0xbf112214	-0.56692624
48	0xbf1d7b06	-0.61515844
49	0x3f1965e8	0.5992112
50	0xbeb35d51	-0.35032132
51	0x3e0edf03	0.1395226
52	0xbe9d49e6	-0.30720443
53	0xbe40d602	-0.18831638
54	0x3f61e204	0.882355
55	0xbebbf428	-0.36709714
56	0xbe80fd48	-0.25193238
57	0xbeba8cab	-0.36435446
58	0x3e23bb86	0.15989503
59	0xbe805d92	-0.25071388
60	0x3ee4253b	0.44559655
61	0x3e176372	0.14784029
62	0xbec92b0d	-0.39290658
63	0xbecd5283	-0.40102014
64	0xbde9f8d2	-0.11424412
65	0x3f032a48	0.5123639
66	0x3e2cc5f7	0.16872393
67	0x3f5e3c50	0.8681078
68	0x3f4f1591	0.8089228
69	0xbd354ff4	-0.044265702
70	0xbeae666d	-0.3406252
71	0xbef386ce	-0.47563785
72	0xbe8c32da	-0.27382547
73	0x3f5f5096	0.8723234
74	0xbee72225	-0.45143238
75	0xbe500d9e	-0.20317695
76	0xbed1e80e	-0.40997356
77	0xbec6b290	-0.38808107
78	0xbeb536e4	-0.3539344
79	0x3f1fda37	0.62442344
80	0xbeb17989	-0.34663036
81	0xbef41eb3	-0.47679672
82	0xbd04342b	-0.032276314
83	0x3f14931f	0.5803699
84	0xbefa981e	-0.4894418
85	0xbe457cda	-0.19285908
86	0x3e2090d3	0.15680246
87	0xbec01d91	-0.37522557
88	0x3efe2ea7	0.49644968
89	0xbe4012d2	-0.1875718
90	0xbf29298f	-0.6607904
91	0x3f4967dd	0.7867411
92	0xbeda41c4	-0.426283
93	0x3e3a00fd	0.1816444
94	0x3ce42a93	0.027852332
95	0xbeb94a04	-0.36189282
96	0xbec0cfbb	-0.37658486
97	0xbf10f79f	-0.5662784
98	0xbf012b8a	-0.5045706
99	0xbd4cab4c	-0.04996805
100	0x3e41e407	0.18934642
101	0xbe6dc2d4	-0.23218852
102	0xbe9efc8e	-0.3105206
103	0x3f0766b0	0.52891064
104	0x3e360cf4	0.17778379
105	0xbe988d4f	-0.2979531
106	0xbf0e7000	-0.5563965
107	0x3f0042be	0.5010184
108	0xbe966608	-0.2937472
109	0x3f1fdcc5	0.6244624
110	0x3fa317af	1.2741603
111	0xbe272e05	-0.16326149
112	0x3e3be242	0.1834803
113	0xbec3c7b8	-0.3823831
114	0x3e715ce3	0.2357059
115	0xbef63818	-0.4808967
116	0xbe06c6b4	-0.13161737
117	0x3f5d8e02	0.8654481
118	0xbe9628ad	-0.29327908
119	0xbe6c1c93	-0.23057775
120	0x3f611e37	0.8793673
121	0xbca872e8	-0.020562604
122	0xbebaf913	-0.36518154
123	0xbee90022	-0.45507914
124	0xbe8b40c4	-0.2719785
125	0xbe58be3e	-0.21166322
126	0xbef37741	-0.4755192
127	0xbecf9bef	-0.40548655
128	0xbea385fe	-0.31938165
129	0xbf245575	-0.641929
130	0x3cf0f18f	0.02941206
131	0x3f2b3077	0.66870826
132	0xbeafd709	-0.34343746
133	0xbe9fc2db	-0.3120335
134	0xbf253fd4	-0.6455052
135	0xbea3d08e	-0.31995052
136	0x3de834c8	0.11338192
137	0xbe9e8128	-0.30957913
138	0xbeb4a65f	-0.3528318
139	0x3e1d881f	0.15383957
140	0x3e24b0d7	0.16083084
141	0x3ef138e5	0.4711372
142	0x3f5da7ee	0.86584365
143	0x3f365817	0.71228164
144	0xbee9d6da	-0.4567173
145	0x3ef6439e	0.48098463
146	0x3f38c142	0.7216989
147	0x3f87c8a1	1.0608102
148	0x3f1db29f	0.6160068
149	0xbeb01f70	-0.34398985
150	0x3efa1bf6	0.48849458
151	0x3e3b3a1d	0.18283887
152	0xbe9046f0	-0.2817912
153	0xbecb3a4b	-0.39692912
154	0xbe3ffa03	-0.18747716
155	0xbeb513bf	-0.35366628
156	0x3f2fb9f4	0.68643117
157	0x3ddaf20b	0.10690697
158	0x3f57bccf	0.84272474
159	0x3f0e6941	0.55629355
160	0xbe5d3bd8	-0.2160486
161	0xbe01a70b	-0.12661378
162	0xbee828c2	-0.45343596
163	0xbe88fc3d	-0.26754943
164	0xbe70f667	-0.23531495
165	0x3e388f7b	0.18023483
166	0x3e49f145	0.19720943
167	0x3f8af0da	1.0854752
168	0x3efbdef4	0.49193537
169	0x3e42538a	0.1897718
170	0xbf14f70d	-0.5818947
171	0x3f5dc058	0.8662162
172	0x3f257fec	0.6464832
173	0x3e64e572	0.22353151
174	0x3e97db62	0.29659563
175	0xbe8af673	-0.2714115
176	0xbe9576b8	-0.29192138
177	0xbe993ab3	-0.29927596
178	0xbec829d6	-0.39094418
179	0xbe93af67	-0.2884476
180	0xbdba0af4	-0.090841204
181	0xbe77ef44	-0.24212366
182	0x3f363348	0.71172
183	0xbe8c55b0	-0.27409124
184	0xbe43d7ab	-0.1912524
185	0x3e1437da	0.1447443
186	0xbeb35cae	-0.35031646
187	0x3e22a03c	0.15881437
188	0x3dd8067b	0.10548111
189	0x3e3b5e3b	0.18297665
190	0xbe25372a	-0.16134325
191	0xbea2c8fc	-0.31793964
192	0xbe77c931	-0.24197842
193	0x3e21c652	0.1579831
194	0x3e6d669a	0.2318367
195	0x3f10040c	0.56256175
196	0xbe40e7fe	-0.18838498
197	0xbde2e770	-0.110792994
198	0xbe8d9004	-0.27648938
199	0xbf40c48a	-0.75299895
200	0xbefe3492	-0.49649483
201	0xbe8668b9	-0.26251772
202	0xbec2ae23	-0.3802348
203	0xbe7ccd4c	-0.2468769
204	0xbeaa204e	-0.33227772
205	0xbe965d76	-0.2936818
206	0x3e9a2c1d	0.3011178
207	0xbf2b465d	-0.6690424
208	0xbe8ec8c1	-0.27887538
209	0x3d979c27	0.074028306
210	0x3d4091e1	0.04701412
211	0xbed13575	-0.40861097
212	0xbeb78205	-0.35841385
213	0x3e3278a0	0.17428827
214	0x3db8bf90	0.09020913
215	0x3e22d20f	0.15900443
216	0xbe91a5b0	-0.28446722
217	0xbedf54eb	-0.43619475
218	0x3d024f0d	0.03181367
219	0xbdcd7ca1	-0.10033537
220	0xbeb7e757	-0.35918686
221	0x3f4df6ae	0.8045453
222	0xbeedc431	-0.46438745
223	0x3de862dc	0.11346981
224	0xbee89ba9	-0.4543126
225	0x3dde55fa	0.108562425
226	0x3de9bb44	0.11412671
227	0x3e56b1dd	0.20966287
228	0x3ec4edc4	0.3846265
229	0x3e2840c8	0.16430962
230	0xbee08fc6	-0.4385969
231	0x3ee1098a	0.4395259
232	0xbe8c5b3c	-0.27413356
233	0xbef8a3ed	-0.48562565
234	0xbebe076d	-0.3711504
235	0xbee1a8e8	-0.44074178
236	0xbe6d9c40	-0.23204136
237	0xbeb9c83a	-0.36285573
238	0x3f912c2c	1.1341605
239	0x3f003a8b	0.5008933
240	0x3f52e40d	0.8237923
241	0xbeb46918	-0.3523643
242	0xbf05c090	-0.5224695
243	0xbec92452	-0.39285523
244	0x3ec776c7	0.38957807
245	0xbeba30be	-0.36365312
246	0x3ea67a99	0.3251541
247	0x3e140c6c	0.14457864
248	0x3e2ca154	0.16858417
249	0xbed43abb	-0.41451058
250	0xbedc2072	-0.42993504
251	0x3f8f16ce	1.1178834
252	0xbe799d5c	-0.24376434
253	0x3f3c5cb6	0.73578966
254	0x3f13fb48	0.578053
255	0xbe9183bd	-0.2842082

network.6.bias f4 [4]
0	0x3da94ec1	0.08266974
1	0x3c7c45f2	0.015397536
2	0x3cc30883	0.02380777
3	0xbc9d991f	-0.019238053
